models/nottunedyet.ckpt (torch, 614339 bytes, 920 tensors)

input_embeddings.embeddings.ID.weight f4 [50, 14]
00000000: 25aa 0040 110b d13f 2a69 463f 5fc7 f4bf
00000010: eb0d 8a3f 2d95 a8bf ecbc dbbe 888a c5bf
00000020: b625 50bf 76ca 9a3f 6506 f4be 17b6 b6bf
00000030: a61c 25bf 425a dfbe 6406 52bf 6115 583f
00000040: c7eb cf3f 6331 6c3e f6a1 673e 86f6 b33f
00000050: e690 aebf 6de0 863f 92c9 043f 1a7b 0240
00000060: b5b6 ac3f f09e 8b3f 2423 dfbe 2d07 393f
00000070: 2586 6cbe fc8c 83be cf72 c8be a79c 0b3f
00000080: e904 debf ff00 a6bf 1137 21bd 5ae1 dd3f
00000090: de6a f53e 60ec c3be 348e bf3e e4d8 3ebf
000000a0: 4453 8fbf 880c 653f 2b31 d8bf 0536 51bf
000000b0: cee2 c7bf 9ae9 0540 5379 4fbf fd46 b5be
000000c0: bf52 48bf c133 d5be f1c3 d7be db61 bf3c
000000d0: 9c3c 92bf 9b7a 303f 851a 59be fb15 c5bc
000000e0: 9441 86bf 8105 613e dee3 993e ea0d 3f3f
000000f0: e6f2 2e3e a1f9 1b40 5a16 d4bf 1daa 233f
00000100: 69fd 123f d7df 253f fdf7 f63f 993e ff3e
00000110: 8086 33be b3be 413f 9916 00bf 766d 7e3f
00000120: 3f13 0b3d ab21 bf3e 2ad8 6b3e 4561 293f
00000130: 9540 733d 8091 30bf 01d4 11c0 cd9c 30bf
00000140: 73a3 86be ccb5 c6be b6a8 d4bf 024c 8bbe
00000150: 6eea 013f ef70 e03e 82d1 923f 4610 39be
00000160: f752 4a3f d9bc 20bc 75a1 72bf e5a0 bd3e
00000170: 9a4d debf 75f4 29bf 9e03 963f 0aa6 b03e
00000180: 61c5 28c0 93a1 233f ade5 393f b49b 793e
00000190: 61c8 353f 56ff 663e ebd7 a03f 3014 873e
000001a0: 3d54 b3be 3141 70be 8524 5ebd 27d1 7b3e
000001b0: 03d1 fe3e b519 953f 94e9 f5be f751 283f
000001c0: 13ce 76bf 8f4b c03c c757 d83e 86f2 983f
000001d0: 95ca 913f fa91 5d3f 2028 87bf 855b 1fbe
000001e0: 2e00 12bf 74c5 043f 7bf9 23bd 0a93 be3e
000001f0: 2c49 27be 751a 193e eb8d f53e d178 0e3f
00000200: 5607 0440 2f32 633f 4d30 69bf 4f50 dfbd
00000210: 3f7d f7be f282 773f 20e8 17be a7fd ed3e
00000220: a1d0 8a3f a4f5 143d f2d8 11c0 5b98 d33f
00000230: dc5d d9be 30f0 853f cd32 1fbf c2a3 463f
00000240: e0f3 35bf be27 913f 98ff e33f 87d0 933f
00000250: c742 a33e e572 e4be ed2a 64bf 3d16 fa3d
00000260: 318d cc3e 20c6 593f 91a1 02bf a275 c93f
00000270: 5241 1ec0 95b0 fabe 0891 a1bf 7d94 363f
00000280: 45c4 f3bf 5945 963e a101 31bc ba23 8dbe
00000290: cde8 923e 98ab 5abf d9a0 813e 04e7 72bf
000002a0: 288f fabf b516 ce3f a95b c13f 340b cf3e
000002b0: a2c9 92bf 7ac7 423f 31ab d93e b889 fe3f
000002c0: f277 aabd a47f 33bd c3cd 2abf 182d 90be
000002d0: 8caa 86bf 8f97 bdbf 0b07 3dbf 5dbc aabe
000002e0: 92c8 37bf 91b7 edbf 4a42 00c0 14f8 8fbd
000002f0: 1603 5e3f 8976 a83d d0e5 fe3e 02cc 173f
00000300: a03a d23f 9e83 9fbf 90b2 923f 9fc5 6cbe
00000310: f16f 47bf 904f 2c3e 84d0 9f3e 90ae d43f
00000320: bce2 3f3f da44 d83f 4608 1abf 67e3 08bf
00000330: 1cff 193e 595c 273f 98e0 8d3f e4fa e73e
00000340: fbe9 54bf 8bb9 b1bf e45f 16bf afe5 a33c
00000350: f5eb 413c 4611 c73e 69c9 cdbe 4edb 25c0
00000360: 3443 57bd c27d d03f d2f6 0bc0 ca06 ab3f
00000370: 5c8a 6a3e 40cd 2f3c 2fc6 943f a650 bc3f
00000380: f275 b63d b69b c73f d0db a53a 7912 93bf
00000390: 8e6a 10bf dbc5 143e b2b5 453e 9700 f43f
000003a0: a165 e6be 47eb 94bf 09c6 fdbf 55bc 8ebf
000003b0: 1a00 943e 73f9 ad3e 7b5c 6b3d f7de 933d
000003c0: aa5a 4bbf e4cc 9c3e 8632 59be f09e 983e
000003d0: fee7 67bf 3e79 e7be 8c96 ddbe a9f4 833f
000003e0: 352b 853f f16f 29bf 7ae1 813f 046b a23f
000003f0: e76c 703f c0a2 b33e b31c 18be 824a d83e
2.0103848 1.6331502 0.7750422 -1.9123343 1.0785497 -1.3170525 -0.42917573 -1.5432901
-0.8130754 1.2093036 -0.4766113 -1.427432 -0.6449684 -0.4362355 -0.82041 0.8440762
1.6243829 0.23065715 0.22620377 1.4059608 -1.363797 1.0537239 0.5187007 2.0387635
1.3493258 1.0907879 -0.43581498 0.72276574 -0.23098047 -0.256935 -0.39150092 0.5453591
-1.7345248 -1.2969054 -0.039359156 1.7334397 0.47933096 -0.38266277 0.3741318 -0.745497
-1.1197286 0.89472246 -1.6890005 -0.8172305 -1.561609 2.092383 -0.810445 -0.35405722
-0.7825126 -0.41641048 -0.4214168 0.02336209 -1.1424747 0.6893708 -0.21201523 -0.024058333
-1.0488763 0.21974756 0.3005666 0.74630606 0.17084846 2.4371111 -1.6569321 0.6393145
0.57417923 0.6479468 1.929443 0.49852446 -0.17531776 0.7568161 -0.5003448 0.99385774
0.0339539 0.37330374 0.23031679 0.66164047 0.059387762 -0.68972015 -2.2785647 -0.6898926
-0.26296577 -0.38810575 -1.6613986 -0.27206427 0.50748336 0.43836161 1.1470187 -0.18072614
0.79032844 -0.00981065 -0.94777614 0.37036815 -1.7367432 -0.66388637 1.1719854 0.34501678
-2.637047 0.6391842 0.7261608 0.24375802 0.7100888 0.2255834 1.2565893 0.2638259
-0.35025206 -0.23462369 -0.054234046 0.24591504 0.49768838 1.164847 -0.48029768 0.6575007
-0.96408194 0.02347353 0.4225447 1.1949012 1.1389948 0.8655087 -1.055912 -0.15562256
-0.57031524 0.5186379 -0.040032845 0.37221557 -0.16336507 0.14951499 0.47959837 0.556531
2.0629478 0.8874845 -0.91089326 -0.109039895 -0.48337743 0.9668418 -0.14834642 0.46482584
1.0844918 0.036367074 -2.2788663 1.653087 -0.42454422 1.0463924 -0.6218689 0.77593625
-0.7107525 1.1340253 1.7812376 1.1548012 0.31886885 -0.44618908 -0.89128 0.12211273
0.3995147 0.8506794 -0.5102778 1.5739024 -2.4727368 -0.48962846 -1.2622385 0.71320325
-1.9044272 0.29349783 -0.010803611 -0.2756632 0.28693238 -0.8541808 0.2531803 -0.9488375
-1.9574938 1.610068 1.5106097 0.40438235 -1.1467783 0.7608563 0.4251342 1.9885778
-0.08323659 -0.0438229 -0.6672022 -0.28159404 -1.0520797 -1.4811877 -0.7383887 -0.33346835
-0.7179042 -1.8571645 -2.004046 -0.07029739 0.8672346 0.08225734 0.49784708 0.59295666
1.6424141 -1.2462041 1.1460743 -0.23122261 -0.77905184 0.16827226 0.31213772 1.6615772
0.74955344 1.6896012 -0.60168874 -0.5347199 0.15038723 0.65375286 1.1084166 0.45308602
-0.83169526 -1.3884748 -0.5874007 0.020006983 0.011836042 0.38880366 -0.40192726 -2.5915103
-0.052554324 1.6288378 -2.1869397 1.3361447 0.22904342 0.010730088 1.1622981 1.4712112
0.08909215 1.5594394 0.001265401 -1.1490012 -0.5641259 0.14528601 0.19307593 1.906268
-0.44999412 -1.1634301 -1.982606 -1.1151224 0.28906327 0.33979377 0.057461243 0.072202615
-0.7943522 0.3062507 -0.2121068 0.2980876 -0.90588367 -0.45209688 -0.4327892 1.0309039
1.0403811 -0.66186434 1.0146935 1.2688909 0.9391617 0.35085106 -0.14854698 0.42244345

input_embeddings.embeddings.Class.weight f4 [2, 1]
00000000: 6fc2 8bbf 7431 35bf
-1.0918711 -0.70778584

prescalers.encoder_length.weight f4 [8, 1]
00000000: 3c95 83be 445d 103f ec25 ba3e 40cc 4a3f
00000010: 80c1 bfbe f04e ac3e c82a b63e ac24 55bf
-0.25699794 0.5639231 0.36357057 0.7921791 -0.37452316 0.33653975 0.35579515 -0.8325908

prescalers.encoder_length.bias f4 [8]
00000000: cd5f 5bbf 2477 26bf b9d5 153f 7f8f 4cbf
00000010: cafa 0fbf 83d3 ff3e f598 043f 7191 503f
-0.85693055 -0.65025544 0.5852924 -0.7990646 -0.5624205 0.49966058 0.51795894 0.81471926

prescalers.Voltage-Battery_center.weight f4 [8, 1]
00000000: aa43 41bf c85d 3bbf 1853 033f 16a0 5e3f
00000010: bc2c 193f 6869 203e 04be a83e f8f9 723f
-0.7549387 -0.73189974 0.51298666 0.8696302 0.59833884 0.1566521 0.3295747 0.9491267

prescalers.Voltage-Battery_center.bias f4 [8]
00000000: 7b39 d5be fc3d c3be f367 143f d55c 12bf
00000010: 39e6 c9be 314f 333f 1e59 3c3e 3957 7e3e
-0.41645417 -0.38133228 0.57971114 -0.571729 -0.39433458 0.7004271 0.1839337 0.2483796

prescalers.Voltage-Battery_scale.weight f4 [8, 1]
00000000: 9c01 d9be 801b 62bc b24c 6a3f 06a8 19bf
00000010: 80d0 003c c881 f33e 30bb 30bf 0c9f 783f
-0.4238404 -0.013800502 0.9152328 -0.6002201 0.00786221 0.47559953 -0.69035625 0.97117686

prescalers.Voltage-Battery_scale.bias f4 [8]
00000000: 2394 9dbe 3cd4 01be a763 41be 81f6 0bbf
00000010: 26d5 63bf 1106 2b3f d165 e83d 3cd7 94bf
-0.30777082 -0.12678617 -0.1888567 -0.5467301 -0.88997114 0.6680613 0.11347545 -1.1628184

prescalers.Voltage-Battery.weight f4 [8, 1]
00000000: bac4 24bf b005 7d3f 50b4 c33e f06f cd3e
00000010: 102a 19bf 7475 e0be b893 1abe e044 3bbe
-0.6436268 0.98836803 0.38223505 0.40124464 -0.5982981 -0.4383961 -0.15095413 -0.18287992

prescalers.Voltage-Battery.bias f4 [8]
00000000: 24c1 3fbf e139 e73d 5fef 573e 936d d03b
00000010: 6521 0c3d 4fcd e7be de06 003e 95d6 e03e
-0.74904084 0.112903364 0.21087407 0.0063607185 0.034211535 -0.45273826 0.1250262 0.43913713

prescalers.Current-Solar.weight f4 [8, 1]
00000000: 5ed8 06bf 20d8 7dbf ccff 053f f842 743e
00000010: d232 02bf 2cb5 763f 0c8d e7be befd 2c3f
-0.526739 -0.99157906 0.5234344 0.23853672 -0.50858796 0.96370196 -0.45224798 0.6757468

prescalers.Current-Solar.bias f4 [8]
00000000: 85da 283f 478a 1fbf 0167 0b3f a83b 68bf
00000010: ea11 2fbf 92e9 11bd 70b8 3cbf 2f7b 583f
0.65958434 -0.6232037 0.54454046 -0.9071603 -0.6838671 -0.03562314 -0.7371893 0.84562963

prescalers.Voltage-Solar.weight f4 [8, 1]
00000000: c064 4dbe 745c cb3e e095 64bf e05e 133f
00000010: 0c1f 9fbe 5abb 42bf 78bb 153e 600b f83e
-0.20057964 0.39718974 -0.8929119 0.5756664 -0.31078374 -0.76067126 0.14622295 0.48446178

prescalers.Voltage-Solar.bias f4 [8]
00000000: 2609 6b3f c024 36bf ae28 14bf 953d 843e
00000010: 4cfc 783e 5266 e93e e843 a73e 614b 1abc
0.91810834 -0.71149826 -0.5787457 0.25828233 0.24314994 0.45585877 0.32668996 -0.009417386

prescalers.Current-Battery.weight f4 [8, 1]
00000000: d039 0e3f 24bf 3c3f d4be 85be 1022 363f
00000010: 1827 fa3e 36ce 613f 667a 11bf 88d4 fcbe
0.55556965 0.7372916 -0.26122153 0.71145725 0.4885795 0.8820528 -0.5682739 -0.49380898

prescalers.Current-Battery.bias f4 [8]
00000000: 3ede 51be 0cec 863e c1a2 253f 8cfa 20bf
00000010: 6cd1 043f d8d1 8ebe 5d62 ae3e 9e66 cfbe
-0.20494935 0.26351964 0.6470147 -0.62882304 0.5188205 -0.27894473 0.3405942 -0.40507978

prescalers.relative_time_idx.weight f4 [8, 1]
00000000: 3c47 60bf eadc 0cbf d047 39bf ccee fd3e
00000010: 0ca9 2bbf c0a2 aabd 18ef 5c3e 9863 0cbf
-0.87608695 -0.5502459 -0.723752 0.4959625 -0.6705482 -0.08331823 0.21575582 -0.5483947

prescalers.relative_time_idx.bias f4 [8]
00000000: bf42 df3e d37b 80bf c74e 20bf ce62 69bf
00000010: e1e5 abbe f775 d8be 240d 5e3e 08fd 37be
0.4360561 -1.0037788 -0.62620205 -0.9116639 -0.3357382 -0.422775 0.216847 -0.17967618

static_variable_selection.flattened_grn.resample_norm.mask f4 [4]
00000000: 24bd 10bf b338 733e 4844 c93d caab 063e
-0.56538606 0.23752098 0.09827477 0.1315147

static_variable_selection.flattened_grn.resample_norm.norm.weight f4 [4]
00000000: 2baf 313f 06e9 703f b829 583f 4f89 c43f
0.6940791 0.94105566 0.8443866 1.5354403

static_variable_selection.flattened_grn.resample_norm.norm.bias f4 [4]
00000000: 2fff de3d 4a5b 05be 31fe 3c3e bbb4 7fbe
0.10888516 -0.13023105 0.18456341 -0.24971287

static_variable_selection.flattened_grn.fc1.weight f4 [4, 38]
00000000: d4d2 46be d57a 103e e174 1dbd c79a 9d3e
00000010: f7a9 9d3d 79bc f3bc e576 0bbf adaa 40be
00000020: 5810 423e b682 6e3e 03d7 ef3c 8298 673e
00000030: 9625 41be a5c9 63bb 16c8 a0bd c305 373e
00000040: 5e42 1dbd 5c3b ac3d eb94 463e 37a5 77be
00000050: 9b38 db3d 7640 5fbe e312 a13e a27b abbe
00000060: 82c6 efbd e04c ea3e e55e 6ebd 1774 0f3e
00000070: ef7f d93d 3414 e23d 359a 683d f46e 9fbd
00000080: 0d4c 283d 442e d43d d994 0f3d 41a5 42bd
00000090: f2e8 133e 9aea 863e 8c35 f43e ed7a 433e
000000a0: 9b08 333e 1890 4b3c 5dbc b13e 3c0c b4be
000000b0: ab27 a8bd 5f81 61be 6267 8dbe 0730 16bf
000000c0: 2138 b53c 4adc b2be 1fbf 6c3e 3790 553d
000000d0: 2eb1 6ebe 9ac3 8f3c 4f07 b73d 677a bfbd
000000e0: abbd 813e bd04 a93e 7f6c 413e c83b 533e
000000f0: ebc3 e4bd 1147 a1be 6317 c83b fd8d 59be
00000100: 43cb 163d de27 3a3d 68c3 85bd a6d0 733e
00000110: 091a abbc 4f6b 403d 6155 8c3e 4adf 613e
00000120: fb27 ff3d c4a2 a93c 3f79 b0be 8902 c0be
00000130: ad2d 443e 726d 84be fee1 023f 62b3 8fbd
00000140: 896c afbc b976 0f3f 8706 d7be 8f31 47be
00000150: c1bf 28be c1f5 9b3e 1b5d d33d d7d3 143e
00000160: 21c0 bf3d c086 5fbe bc87 323e e71f d8be
00000170: 4093 7e3e b636 d2be 3483 67be b0f9 c4bc
00000180: e342 d53c e84c 683d 6512 573e 8ab4 d63d
00000190: 7625 c4be cea3 16bc 68be 9d3e 1ca1 45be
000001a0: 28bb 12be a533 aebd 18ab c83d 94e8 eebd
000001b0: 08f5 803d 8341 823d 61e2 b2bd 46e7 413f
000001c0: ddff dcbd 0440 5dbe ce46 5bbe ec3f 8a3d
000001d0: a8ac 883d 3a56 03bf e888 303e 0ba6 b83d
000001e0: 56d6 c83e 649f be3e de96 4d3d c3c4 aabd
000001f0: 51cb adbe ea49 c5bd d786 c03b 854c a83e
00000200: 2db1 a8be ff46 b83d 984c 383e 2ca2 c33e
00000210: 7c4b fa3e 4c0c f23e bbcd 003e ad64 01bf
00000220: 7872 8dbe a558 94bc a236 e6be f4aa 6dbe
00000230: bfc8 84be f907 463e 04c7 413c ee76 833d
00000240: 8203 d7bd 73e0 ec3e 47b9 873b 174b 333e
00000250: d57d 03be b724 4ebe c38e 4f3e 4986 cebd
-0.19416362 0.14109357 -0.038441543 0.30782148 0.07698434 -0.029752957 -0.54478294 -0.18815108
0.18951547 0.2329205 0.02927733 0.22616771 -0.18861994 -0.003475764 -0.07850663 0.17873292
-0.03839337 0.084097594 0.19392745 -0.24184118 0.10704156 -0.21801934 0.31459722 -0.33492762
-0.11707784 0.45761776 -0.058195967 0.14009129 0.106201045 0.1103901 0.05678769 -0.077848345
0.041088153 0.10360387 0.03505406 -0.04752088 0.1444433 0.26350862 0.47697103 0.19089861
0.17483751 0.012424491 0.34714022 -0.35165584 -0.08210691 -0.22022007 -0.27617937 -0.58667034
0.02212149 -0.34933692 0.23119782 0.052139487 -0.23309776 0.017549325 0.08936941 -0.09349518
0.25340018 0.33011428 0.18889044 0.20628273 -0.11170181 -0.31499532 0.0061063035 -0.2124557
0.03681494 0.045448177 -0.065314114 0.23810062 -0.020886438 0.046977337 0.2740889 0.22057834
0.124587975 0.020707496 -0.34467503 -0.37501934 0.19158049 -0.2586475 0.51126087 -0.070166364
-0.021414058 0.5604053 -0.41997167 -0.19452499 -0.16479398 0.30460933 0.10320493 0.14533935
0.093628176 -0.21828747 0.17434591 -0.4221184 0.24860859 -0.41057366 -0.22608644 -0.024044842
0.02603287 0.05671397 0.2100311 0.10483654 -0.3830983 -0.0091943275 0.3080933 -0.1929974
-0.14329207 -0.08505944 0.097982585 -0.116654545 0.06296736 0.063601516 -0.087345846 0.7574352
-0.107909895 -0.21606451 -0.21413729 0.067504734 0.066735566 -0.51303446 0.17239726 0.09016045
0.39226025 0.3723098 0.050192706 -0.083383106 -0.3394418 -0.096332386 0.005875449 0.3287088
-0.32947674 0.089979164 0.17997968 0.38209665 0.48885715 0.47275007 0.1257848 -0.50544244
-0.27626395 -0.018108675 -0.44963557 -0.23209745 -0.25934407 0.19338979 0.011827234 0.064191684
-0.10498716 0.4626499 0.00414196 0.17509113 -0.1284097 -0.20131193 0.20269303 -0.100842066

static_variable_selection.flattened_grn.fc1.bias f4 [4]
00000000: 133c c73c 7159 f13c 58d3 6d3d 54c7 da3c
0.024320638 0.029461594 0.05806288 0.026706375

static_variable_selection.flattened_grn.fc2.weight f4 [4, 4]
00000000: 7881 e43c 6a16 e0be 9b22 3dbc 99f6 cd3e
00000010: 4552 19be 7678 c43e 1448 2ebe d9a2 54bf
00000020: d1e0 a43f d42f 923e 4a37 ec3e c2a0 94bb
00000030: cb49 ee3e 8ff8 f23e 993a 2fbf 5b3f 043d
0.027893767 -0.437671 -0.011543895 0.40227202 -0.1497279 0.38373154 -0.17019683 -0.83060986
1.2881109 0.28552115 0.46135932 -0.0045357654 0.46540675 0.4745526 -0.6844879 0.032286983

static_variable_selection.flattened_grn.fc2.bias f4 [4]
00000000: 6d96 1c3e cb48 d23c 244a 3c3e 0d1a ebbc
0.15291758 0.025669476 0.18387657 -0.028698945

static_variable_selection.flattened_grn.gate_norm.glu.fc.weight f4 [8, 4]
00000000: 6a87 8abe e14a 9bbd 1508 3e3c 1bad 2fbf
00000010: e479 05be 691c 60bc e76c 9bbe 75e8 323f
00000020: 22d8 e4be 605f ff3e 2cb4 733e fce6 b6be
00000030: 889a 0b3f 9eba f83e 7b07 0ebf 958a 1cbf
00000040: 1573 393f 4d42 303f d265 a6be ba1a 583e
00000050: 65db a13d 1a9b 16bf 29af 533e 40b9 95bd
00000060: bc11 f4be c0ae 293f 2b52 d3be 7c8e 203e
00000070: 81a9 1b3f e653 863e 9eb7 3a3d 3737 083f
-0.27056438 -0.075826414 0.011598607 -0.68623513 -0.13034779 -0.0136786485 -0.30356523 0.6988595
-0.44696146 0.49877453 0.23799199 -0.35723102 0.5453267 0.48579878 -0.55480164 -0.6114896
0.72441226 0.68851167 -0.32499558 0.21103945 0.07903174 -0.58830416 0.20672287 -0.07310724
-0.4766978 0.6628227 -0.41273627 0.15679353 0.6080552 0.26235884 0.045585267 0.5320925

static_variable_selection.flattened_grn.gate_norm.glu.fc.bias f4 [8]
00000000: 7368 e93d 4291 0cbe 5f73 4d3e 1541 93be
00000010: f2ef 77bd ebc7 163e bc7c 69bd 420e 293e
0.11396875 -0.13727286 0.20063542 -0.2876059 -0.060531564 0.147247 -0.05700372 0.16509345

static_variable_selection.flattened_grn.gate_norm.add_norm.norm.weight f4 [4]
00000000: fb7d 223f 51c2 213f 8a35 793f 1ba6 833f
0.6347348 0.6318713 0.9734732 1.0285066

static_variable_selection.flattened_grn.gate_norm.add_norm.norm.bias f4 [4]
00000000: ce3e ea3d 78aa 81be c527 0e3e bdd1 be3d
0.1143776 -0.2532537 0.13882358 0.09317348

static_variable_selection.single_variable_grns.ID.mask f4 [16]
00000000: 407a 113d 65f4 ac3d 78c1 e1bc 2b76 17be
00000010: 8db5 f93e c21b 82be 7d9b a83d f1e1 113e
00000020: 6e83 d9bd 5a85 57be 2f14 3f3c ca3c aeba
00000030: 09a7 31be cf50 17be 28bb c4bd fce7 7f3e
0.035516977 0.08445052 -0.027558073 -0.14791171 0.48771325 -0.25411803 0.08232782 0.14246346
-0.10620771 -0.21046963 0.011662527 -0.0013293263 -0.17348875 -0.1477692 -0.0960601 0.24990839

static_variable_selection.single_variable_grns.ID.norm.weight f4 [16]
00000000: c586 573f 34e1 2c3f 7a26 3e3f 2596 653f
00000010: a58e cb3f e398 853f eef4 743f 76c1 af3f
00000020: 1abc 8a3f 2846 8d3f 468e 763f c6de 863f
00000030: 8d90 6d3f d5b4 543f b680 863f 7a8c 933f
0.84190017 0.6753113 0.7427746 0.8968223 1.5902907 1.0437282 0.95686233 1.3730915
1.0838654 1.1037035 0.9631084 1.0536735 0.9279869 0.8308843 1.050803 1.1527245

static_variable_selection.single_variable_grns.ID.norm.bias f4 [16]
00000000: 68b2 b7be 6779 ef3d d498 09be db2a fd3c
00000010: 0b04 b4bd 1355 f03d d314 bd3d 1b01 453e
00000020: beba 53bd a9d6 173d e923 4fbe fc00 f83d
00000030: fade 34be d717 283e 3f8b 2e3d 080c aa3d
-0.358783 0.116930775 -0.13437206 0.030904224 -0.08789834 0.117349766 0.092324875 0.19238703
-0.051691763 0.03706995 -0.20228542 0.12109563 -0.17663184 0.16415344 0.042613264 0.08303076

static_variable_selection.single_variable_grns.encoder_length.resample_norm.mask f4 [16]
00000000: 9623 b93d f112 6ebe 8bdb c63d 06e1 81be
00000010: 8e54 0ebd 536d 7f3d bd83 ef3e 4ea9 78bd
00000020: 95ee 83be cbc4 5fbe 8027 06be 121f e5bc
00000030: 6d73 06be 3873 8d3d 2ad2 e53d bbd4 ab3e
0.090399906 -0.23249413 0.09709843 -0.25366992 -0.034748606 0.06236012 0.46780196 -0.060708337
-0.2576796 -0.21852414 -0.13101006 -0.027968917 -0.13129969 0.06906742 0.11221726 0.33560738

static_variable_selection.single_variable_grns.encoder_length.resample_norm.norm.weight f4 [16]
00000000: 4cbd 903f 04ba 3e3f 6318 943f b02d 3d3f
00000010: b2f8 713f e287 883f 6b8e c43f 2ca2 703f
00000020: a663 3d3f 0fc6 463f 8180 543f d7c6 7b3f
00000030: 5b99 683f 7c49 8a3f da9f 963f 8f0e b83f
1.1307769 0.7450259 1.1569942 0.7389784 0.94520104 1.0666468 1.5355963 0.93997455
0.73980176 0.77645963 0.8300858 0.9835028 0.90859 1.0803676 1.1767533 1.4379443

static_variable_selection.single_variable_grns.encoder_length.resample_norm.norm.bias f4 [16]
00000000: 21aa 23be f63c 853e d939 e2bd a5d7 bd3a
00000010: 1f87 97bd 94f6 643d 70bd 683d a14f 873d
00000020: 93cf 763e 928c 523e c9cc 3ebe 1a14 deba
00000030: 2b76 29bd a81e 983d fbc2 453d 7ddd 1dbe
-0.15982868 0.26023072 -0.1104619 0.0014483823 -0.07398819 0.055899218 0.056821287 0.06606985
0.24102621 0.20561436 -0.18632807 -0.0016943247 -0.04137246 0.07427722 0.04828165 -0.15416522

static_variable_selection.single_variable_grns.encoder_length.fc1.weight f4 [8, 8]
00000000: e897 c1be e580 1c3f 6d87 bb3e 4f00 00bd
00000010: 6b5a 993e 099a 9a3d e1d2 603f 04f0 4abf
00000020: dff0 e8be e1b0 0a3e b9bc a9bb 66c1 43ba
00000030: fa1a 79be ef32 08bf 5bde 1a3f 3595 7dbf
00000040: 1220 3e3e 2fbf acbe 2f62 bebe d702 e33c
00000050: f2a9 c8bd 8ab5 d33e 7c9d 10bf b60d 383f
00000060: 8ffd 913d 3425 d23e b6ad 2c3d e702 79bd
00000070: 73b0 25be e345 cdbc d5e1 b9be c7b1 3c3f
00000080: 87a1 ebbd d9d7 fb3b cffe 523f 4f50 acbe
00000090: a9cc 283e c5ec 323f c35e 1fbf 8e9b 92be
000000a0: ee51 233f 48af 2c3f 1b9a 11bf 436b ca3d
000000b0: 02a4 0fbe 981b 73be 6e7d 58be d1dd 26be
000000c0: a88f d0be 1dc7 4d3e 295d eabc f818 db3e
000000d0: 888b 90be e5ec e7be 5dcb 9dbe d489 163e
000000e0: ba9f 143e 8992 50bf c376 293e 9e6e 593f
000000f0: dc4b 903e 3a7d 443f c438 04bf 4669 15bf
-0.37811208 0.6113418 0.3662676 -0.031250294 0.29951796 0.07548911 0.87821776 -0.79272485
-0.4549627 0.13544036 -0.005179968 -0.0007467478 -0.24326697 -0.5320272 0.6049554 -0.99055797
0.18566921 -0.33739612 -0.37184283 0.027711315 -0.097980395 0.4134944 -0.564903 0.7189592
0.071284406 0.4104401 0.04215785 -0.060793784 -0.16180591 -0.025057739 -0.3630511 0.73708767
-0.11505418 0.007685643 0.8242006 -0.3365502 0.16484322 0.6989253 -0.6225397 -0.28634304
0.6379689 0.6745496 -0.5687577 0.0988374 -0.14027408 -0.23740995 -0.21141598 -0.16295554
-0.407346 0.20095487 -0.028608875 0.42792487 -0.28231454 -0.45297924 -0.30819216 0.14701015
0.14514056 -0.81473595 0.1654921 0.84934413 0.28182876 0.7675358 -0.5164912 -0.5836376

static_variable_selection.single_variable_grns.encoder_length.fc1.bias f4 [8]
00000000: c286 36be 1802 35be 0b2a 163e d0ce ab3d
00000010: 7a82 43bd 4371 5d3d f8a1 01be 4be9 613c
-0.17824844 -0.1767658 0.14664476 0.08389056 -0.047731854 0.054063093 -0.12659442 0.013788532

static_variable_selection.single_variable_grns.encoder_length.fc2.weight f4 [8, 8]
00000000: 8cd1 053f 9427 59bf 737f 833d 1c93 883e
00000010: a736 963e 6e50 79be 2500 4abe 0afa f83d
00000020: b7b8 813e eb4b 6abf f3a0 f0be 82a9 03be
00000030: 7f25 09be 9289 8e3a 05ff 2abe d953 003e
00000040: 2f74 01be 67e0 d0bb 6142 32bf 4759 973e
00000050: 4f52 8b3e cc63 8abc 94a9 9d3e 9f5c 5bbf
00000060: ffcc 34bf 4aab 84bd 77d4 acbe f26c 22bf
00000070: 72a4 03bf aeb5 58bf 364b 99be f095 053f
00000080: 2c6c 2fbf 2131 bcbe b420 233f eb1c c63e
00000090: 95de d23e c0ca 16bf 767f 0abf e38d 273e
000000a0: b72e 03bf c54f 063f 9191 17bf 8128 b5bf
000000b0: 5f6c 033f b3bf 563e 0787 743e 8c73 453f
000000c0: 2643 dbbe 5003 cabe e9b2 e4bc e011 a8be
000000d0: 4417 d73e 7085 a53e 4094 14bf 03f6 cfbf
000000e0: 171e d9be b18f b1be 9283 80be 4b2f 05be
000000f0: 65e8 043f 9658 8e3f 4c88 c43e d4cf 92be
0.5227287 -0.84826016 0.064207934 0.26674736 0.2933857 -0.24347088 -0.19726618 0.12157066
0.2533624 -0.9152209 -0.46997795 -0.12857631 -0.1339321 0.0010874739 -0.16698845 0.12531985
-0.12641977 -0.006374407 -0.69632536 0.295603 0.27211234 -0.01689329 0.3079344 -0.85688204
-0.706253 -0.06477983 -0.33755848 -0.6344749 -0.514228 -0.8465222 -0.29940194 0.5218191
-0.6852443 -0.36756232 0.63721776 0.38693938 0.41185442 -0.5890312 -0.5410074 0.16362719
-0.51243156 0.5246547 -0.5920649 -1.4152986 0.51337236 0.20971565 0.23879634 0.77129436
-0.42824668 -0.39455652 -0.027917342 -0.32826138 0.42009938 0.32328367 -0.5803871 -1.6246952
-0.4240577 -0.3467994 -0.2510038 -0.13006322 0.51917106 1.1120784 0.38385236 -0.28674185

static_variable_selection.single_variable_grns.encoder_length.fc2.bias f4 [8]
00000000: 5bf2 85bd cc8f 513d c596 cabd e29c d23d
00000010: 29cf 3b3e 401f f9bd e0c9 b03d d20a 873e
-0.06540366 0.051162526 -0.09892038 0.10283829 0.18340744 -0.121641636 0.086322546 0.26375443

static_variable_selection.single_variable_grns.encoder_length.gate_norm.glu.fc.weight f4 [32, 8]
00000000: d3bd 82be 588e 6c3e c25f 193e c247 d5bd
00000010: 35d3 f1be 1f62 ad3d e2c2 073e b081 8d3e
00000020: 0905 ce3e b296 adbe 4a09 b73e 536c 73be
00000030: 1033 8cbd c3c2 003f dadf a1bc 6812 413e
00000040: 9c3c 8fbe cc42 75be 85f6 d4be cdcf 553e
00000050: 9faf 963e e376 e7be 383b 8f3e ae4f cc3e
00000060: a39b 8cbe 8941 cf3e e8ee 793d 60eb 373e
00000070: e536 023f fbfd ad3d 57aa c43e 73fe 5f3e
00000080: 5419 c53d 284f c23d 8b80 9bbe bd59 3ebd
00000090: 72a8 57be 3802 cb3d 9565 52bd 4131 9a3d
000000a0: 2dd6 4fbe ea20 83be 09d8 5a3e f68c 5e3d
000000b0: 0c21 3e3e 3500 0b3c 1b63 d7bd e438 1bbe
000000c0: 08d8 523e 36b4 59be 2337 7d3e 1d94 3d3c
000000d0: c66b c4be 2419 dd3d e003 58be ed29 0ebe
000000e0: 3c39 553e beee 32bb 45a0 b43e 35b5 47be
000000f0: 240b 3b3d 73de 24be 4178 87be 62b9 53bd
00000100: 61b7 d33e d0b7 a6bc e27c 5bbe 7313 e5bd
00000110: 9afe 91be 2394 b13d c867 dcbe f58c 0bbe
00000120: 8e5c ab3e 2a32 ccbe ed52 3fbe 5247 bfbc
00000130: b982 31be ecce 0d3e 6cc9 ae3d cda2 4dbe
00000140: 5fbf b0be 141d 3abe 155a febd b3a6 303d
00000150: ce80 0d3e e6a9 01be cead 883d 00e5 2a3d
00000160: 88e6 893e f30f 1e3e 2709 99be d258 8dbd
00000170: 5e3e b8be 0bd8 3a3e c935 a8be a485 19be
00000180: 78ec c13e 0f72 5cbe 010f 4f3e 9921 813e
00000190: d5b4 c83e f444 f8be ca92 ee3e 9537 c63d
000001a0: 61ca 663d b398 763e 7a3e 86be c594 27be
000001b0: 46a5 1a3e 4bac c1bd 3181 92be 6c47 b5bd
000001c0: 586d 03be 269a 99bd 7dab a6be bf93 de3d
000001d0: 0bf7 12be 626e 99bc 25f8 853e 20c7 823d
000001e0: 5286 9fbc b636 a13d 3ad0 5abe 99eb 723d
000001f0: 90f4 113e 5aff 97be 01dd 8d3d e957 813e
00000200: 71e8 3fbd bb0a 0d3e 42f3 703e 77a2 8bbd
00000210: 84b2 3bbd c61d b8be 498c 71bd 34a8 9f3d
00000220: e276 8ebe 9a30 2dbd 877f 363e dd53 a83e
00000230: 0d4a 5bbd 3c90 353e 2407 453e bc00 3a3e
00000240: 9925 133e 30d8 7ebe b2bf a9be 0d39 83bd
00000250: 1c91 9b3d 4949 2cbd 3d8e 7c3d b95b ea3d
00000260: 766c eb3d c331 42be 7e0e eabe f12b 79be
00000270: 83a6 cfbd 8eee 473e 8285 59be 51cc a13d
00000280: 82b2 31be d4f3 4ebe e391 d53d b106 06be
00000290: 0ac4 9abd 8a70 a8be a7a2 26bc 866b 543e
000002a0: f6c4 b5bd e672 1ebe c606 a53c 9010 01be
000002b0: 1a1e 0dbe 01fd b2be a7b6 45bd 88d4 81be
000002c0: c80e 8b3e f194 39be fa02 3cbe 556c 85bd
000002d0: 8175 d83d abd5 6abd 9994 7b3e 0913 15be
000002e0: 4243 bb3d a42d c73c ea71 afbe cf9d c4bd
000002f0: e79c 8abc ed8a 253e 3a62 6a3e 6ba2 a63e
00000300: b35b 42be ba4e 89be 2186 88bd 50ec a7be
00000310: e4a2 15be 1358 a0be e42a f83d 4220 a13e
00000320: 1e9f a7bc d88f 71be a177 9cbe de64 f6bd
00000330: b65d 8d3d a255 563c ca12 6c3d bf56 d53e
00000340: f4b7 4e3e 5a01 bc3d 5a7d efbd 3117 3c3e
00000350: c254 3e3e 8f80 bbbe a011 10be 4e88 09bd
00000360: 79e3 ea3d f5c8 9f3d 2bdc 43be 3546 a3be
00000370: 2ef9 b8bd d626 5e3c 67dc 7b3d 80d9 a6bd
00000380: ce50 a13e 39bd 80bc d687 7d3e 9878 98be
00000390: a31a b03e 97d5 5abe bfae 4d3d c630 1d3e
000003a0: c007 09bf 1650 b63e 42c9 a4bc e1ee 5a3d
000003b0: 30b2 893d 5ee2 b33d 9fba fa3d 9d6d f33e
000003c0: 3ce6 b7be 1c40 a03e 5a88 d2bd 8da8 99bd
000003d0: 412b 9f3d 0e0c 683e 2516 39be 9705 18be
000003e0: 4939 393e c55e c5bd e8f5 e33d 8a11 22bd
000003f0: f454 96bc 5557 813e 9912 8fbe 45d9 83bd
-0.2553545 0.23101175 0.14977935 -0.10414077 -0.4723145 0.08465981 0.13257936 0.27638006
0.40238217 -0.33904034 0.35749274 -0.23771791 -0.06845677 0.5029718 -0.019760061 0.18854678
-0.2797593 -0.23951262 -0.4159433 0.20880051 0.29430863 -0.4520789 0.27974868 0.3990454
-0.2746249 0.40479687 0.061018854 0.17960882 0.5086501 0.084957086 0.3841121 0.21874408
0.096239716 0.09487754 -0.30371508 -0.0464723 -0.2106035 0.099125326 -0.051366407 0.07528926
-0.20296545 -0.2561105 0.21371473 0.05433365 0.18567294 0.008483936 -0.1051695 -0.15158421
0.20590222 -0.21260151 0.24728064 0.0115709575 -0.38363475 0.10795811 -0.21095228 -0.13883181
0.20822614 -0.0027302946 0.35278526 -0.19502719 0.04566492 -0.16100483 -0.26458934 -0.051690467
0.41350845 -0.02035132 -0.21434358 -0.1118535 -0.28514558 0.08670833 -0.4304793 -0.1362799
0.3346905 -0.39882022 -0.18683977 -0.023349438 -0.17335023 0.13848466 0.08534512 -0.20081635
-0.34521005 -0.18175155 -0.124195255 0.043127727 0.13818666 -0.12662467 0.066737756 0.041722298
0.26933694 0.15435772 -0.29889795 -0.06901707 -0.35985082 0.18246476 -0.32853535 -0.14992386
0.37875724 -0.21527885 0.20220567 0.25220945 0.39200464 -0.48490107 0.46596366 0.0967857
0.056345347 0.24081688 -0.2621954 -0.16365345 0.1510211 -0.094566904 -0.2861419 -0.08851513
-0.1283468 -0.075001046 -0.3255271 0.10868024 -0.14352052 -0.018729392 0.26165882 0.06385636
-0.019473229 0.078717634 -0.21368495 0.059306715 0.1425345 -0.29687005 0.06926919 0.25262383
-0.046852533 0.13773625 0.23530295 -0.06818097 -0.045824543 -0.35960215 -0.058971677 0.07795754
-0.27825075 -0.04228268 0.17822085 0.32876483 -0.053537417 0.17730802 0.19241005 0.18164343
0.14369811 -0.24887156 -0.33154064 -0.06407366 0.07596037 -0.042062078 0.061659086 0.11443276
0.11495297 -0.18964295 -0.45714182 -0.24333169 -0.101391815 0.19524595 -0.21242335 0.079002984
-0.17353252 -0.202102 0.10428216 -0.1308849 -0.07556923 -0.3289836 -0.010170615 0.20744142
-0.08875458 -0.15473518 0.020144831 -0.12603974 -0.13781014 -0.34958652 -0.048269894 -0.2535746
0.27159715 -0.18123223 -0.1836051 -0.06514803 0.10569287 -0.057332676 0.24568404 -0.14558043
0.09143688 0.024313755 -0.34266597 -0.09600412 -0.01692052 0.16166277 0.22889033 0.3254579
-0.18980293 -0.26817876 -0.06666208 -0.3279748 -0.14612919 -0.31317195 0.12117556 0.31469923
-0.020461615 -0.23590028 -0.3056002 -0.12030958 0.069026396 0.01308194 0.057635106 0.41667745
0.2018736 0.09179945 -0.11693831 0.18368222 0.1858702 -0.3662152 -0.14069223 -0.033577256
0.11469168 0.078020014 -0.19126956 -0.318895 -0.09031902 0.013559064 0.06148949 -0.081469536
0.31506962 -0.015715228 0.24758849 -0.29779506 0.34395322 -0.2137054 0.05021548 0.15350637
-0.5352745 0.35607976 -0.020115498 0.05345047 0.0672344 0.087834105 0.122426264 0.47544566
-0.35917842 0.31298912 -0.10279913 -0.07502852 0.07771922 0.22660848 -0.18074854 -0.14845882
0.18088259 -0.096372165 0.11130887 -0.039567508 -0.018351056 0.25261942 -0.27943876 -0.06437925

static_variable_selection.single_variable_grns.encoder_length.gate_norm.glu.fc.bias f4 [32]
00000000: 6862 0ebe 4b75 4c3e e986 bcbd 92f3 78bd
00000010: e29e 3bbd 0089 ee3c 0467 ca3c a94b 7d3d
00000020: 4948 763e bced 513e 3227 1fbe ec24 88bc
00000030: 8308 39bd 8120 0c3d 69c5 303d a2af f7bd
00000040: 94b9 333d 5d12 413d d14e 953d c824 42bd
00000050: 8936 d9bd 7ac1 f2bd c3b2 1ebc 6d0d 82bd
00000060: 7182 713d 40de bdbc aea7 5ebb e51a 0abd
00000070: d742 c03d 2011 19be 375a bebd 9d04 66bd
-0.13904727 0.19966619 -0.092054196 -0.06077916 -0.04580582 0.029118061 0.024707325 0.061839733
0.24051012 0.20500845 -0.15542296 -0.016619168 -0.045174133 0.034210686 0.043157015 -0.12094046
0.043878153 0.047136653 0.07290424 -0.04739836 -0.10606105 -0.11853309 -0.009686175 -0.06350217
0.05896229 -0.023177266 -0.0033974457 -0.033717055 0.09387749 -0.14947939 -0.09294551 -0.056156743

static_variable_selection.single_variable_grns.encoder_length.gate_norm.add_norm.norm.weight f4 [16]
00000000: 30ec 823f 6e30 323f c438 873f 36a7 203f
00000010: bd1e 6d3f a3c3 813f 3d2d 983f a1c7 5d3f
00000020: 91b8 043f d3d9 293f 5974 5f3f c1bc 733f
00000030: db73 583f 6e14 853f f927 8d3f eea1 8a3f
1.0228329 0.6960515 1.0564198 0.62755144 0.9262503 1.0137829 1.1888806 0.86632735
0.51844126 0.66348 0.8728691 0.9520989 0.8455178 1.039686 1.1027824 1.0830667

static_variable_selection.single_variable_grns.encoder_length.gate_norm.add_norm.norm.bias f4 [16]
00000000: 33fe 9abd b08e 9c3e 6b95 08bd 6746 153d
00000010: 9bdb 9fbd 39bd 223d eb7b 823d 82dd bf3d
00000020: ef82 813e 6cc2 603e 1a0f 38be 71a4 ebbc
00000030: f016 b3bd d3b6 f83c 50d9 c23c 2ea6 2bbe
-0.07568016 0.30577612 -0.03334562 0.036444094 -0.07805558 0.039731238 0.06371292 0.09368421
0.25295207 0.21949166 -0.17974511 -0.028764935 -0.08744609 0.030360615 0.023785263 -0.16762611

static_variable_selection.single_variable_grns.Voltage-Battery_center.resample_norm.mask f4 [16]
00000000: 7758 90be 4417 aabc a26f 283e 59fb b33e
00000010: 3bc4 24be c485 ad3e 454b 393d 6116 7cbe
00000020: 0cde a2bd 934f 83bd 98fb e23b 9da0 d3bd
00000030: 84c2 c9bd b80a ecbd 8f21 823d 21b4 a03e
-0.28192493 -0.020763047 0.16448835 0.351527 -0.16090481 0.33891118 0.0452378 -0.24617912
-0.07952508 -0.06411662 0.006926965 -0.10333369 -0.09851554 -0.11525482 0.06354057 0.31387427

static_variable_selection.single_variable_grns.Voltage-Battery_center.resample_norm.norm.weight f4 [16]
00000000: c7c2 313f 8bdc 7e3f e958 993f 57e5 b93f
00000010: e306 523f 3577 a13f 9c00 873f 6afd 553f
00000020: 290a 723f e37f 703f cf78 833f 4cf1 753f
00000030: 6947 793f bd18 6e3f 614f 793f bf3c a63f
0.6943783 0.9955527 1.1980258 1.4523114 0.8204176 1.2614504 1.0547061 0.83589804
0.94546753 0.9394514 1.0271243 0.96071315 0.9737459 0.930065 0.9738675 1.2987288

static_variable_selection.single_variable_grns.Voltage-Battery_center.resample_norm.norm.bias f4 [16]
00000000: 01f4 973e 1adb fc3d b968 433d 0de3 9e3d
00000010: ce24 acbd 4622 a53d 4d69 7d3d 2aee 7ebc
00000020: 1b3f 8c3d f62a c03d 1bf2 35bd 5fc6 97bd
00000030: f4c1 acbd 413b f6bd 3b12 46be ad16 8c3b
0.29678348 0.12346478 0.047707293 0.0775815 -0.084054574 0.08063178 0.061868 -0.015559712
0.06847974 0.09383194 -0.044420343 -0.07410883 -0.08435431 -0.120230205 -0.19342892 0.004275164

static_variable_selection.single_variable_grns.Voltage-Battery_center.fc1.weight f4 [8, 8]
00000000: 30c0 903d 3c35 c2be 81de 173f 2583 253e
00000010: be84 7f3c db14 833d 43bb dfbe ef90 80be
00000020: 4464 15bf 27c9 763d 3377 ba3d ab75 863e
00000030: 9ef0 403f 41f9 5e3d da03 11be c556 b0be
00000040: 1d18 383d bbe8 b0bd 6d5c cebe 2cff 433e
00000050: ba4b 853e a50c 153f db3c 9bbf 34be 093e
00000060: c6e3 01bf 8483 d03e cfdf e53e c5e1 323b
00000070: 89e6 45be 05f2 1cbd d3cc a43d 746d ddbe
00000080: bc43 703f c4ec c43d 6e40 413f fc33 0cbe
00000090: 833f 00be 12cb 313d bca3 953e 84b7 47be
000000a0: 0c1d 183f 5b26 303f d787 a23e 503b 20bb
000000b0: 764c b6bd 2063 a13e 6921 0fbf 8aab a03e
000000c0: bb80 f2ba b43e 4fbe 633e 853f bf66 3a3f
000000d0: bb02 f33c 4bd3 02bf 0e84 39be 30da 363f
000000e0: 9428 cdbe 9b7b 8b3f f46f 3d3e da14 043e
000000f0: fb0a 3a3e a2be 9f39 0203 223f ee76 f53e
0.07067907 -0.3793124 0.5932389 0.16163309 0.015595613 0.06400462 -0.43697557 -0.25110576
-0.5835612 0.060250428 0.09104767 0.2626165 0.7536715 0.054436926 -0.14161626 -0.344412
0.04494487 -0.0863814 -0.4030489 0.19140309 0.26034337 0.5822242 -1.2127947 0.13451463
-0.5073818 0.40725338 0.44897315 0.0027295214 -0.19326223 -0.038316745 0.080468796 -0.4324757
0.93853354 0.09615472 0.75488937 -0.13691705 -0.12524228 0.043406554 0.29226482 -0.195036
0.5941932 0.68808526 0.31744263 -0.0024449416 -0.089013025 0.3152094 -0.55910355 0.31380874
-0.00185015 -0.20238763 1.0409664 0.7281303 0.029664388 -0.5110366 -0.18116781 0.7142668
-0.4007002 1.0897096 0.18499738 0.12898579 0.18168251 0.00030468876 0.6328584 0.479423

static_variable_selection.single_variable_grns.Voltage-Battery_center.fc1.bias f4 [8]
00000000: 37a5 01be 3723 143c 2ec2 c53a 7e88 1a3c
00000010: 31dd f8bc 8947 b63d edf8 04be 5a78 d23b
-0.1266068 0.009041599 0.0015087777 0.009431956 -0.03037891 0.08900363 -0.12985583 0.0064230384

static_variable_selection.single_variable_grns.Voltage-Battery_center.fc2.weight f4 [8, 8]
00000000: 45a4 b0be 6a6b 1cbe 6941 acbe bb6b 963e
00000010: 0a9e 583e 48a7 013f fa54 31bf e1cc e83e
00000020: 5528 b4be a181 3abe dc51 8d3d 9fd6 f73d
00000030: 1e6c ec3e 31db 823f ff37 7fbd 3144 153e
00000040: d5e4 073e fee6 7cbd db3b 98bf 975c 5fbf
00000050: 7d7d 613f beb8 cebd ea66 b33e a003 a13d
00000060: 53d0 aa3e d3fb c93e 7e78 783f cde9 433f
00000070: 20c8 943e 246d ccbe d800 00bf 8fad 203f
00000080: 5bad 9ebd 984d 9cbe 50ec 1fbf 22cc 14bf
00000090: 43c9 debe 1fff 99be f41d 253e 3578 cbbe
000000a0: de9b 34bf 27f6 e3be 8234 fd3c aa45 8d3e
000000b0: 8e0d 943f de79 233f dfeb 463e 1e3d 81be
000000c0: 9463 16bf 0974 6b3f d8ef 13bf c903 f3be
000000d0: 01fe 503f d498 253f f4c3 abbe ab76 263f
000000e0: deb1 b9bd 94fa d93e 44d6 14bc 6b59 dc3e
000000f0: 39c2 4ebe 73e5 43be 61cc 06bf 8002 7fbe
-0.34500328 -0.1527535 -0.33643654 0.29379067 0.21154037 0.50645876 -0.6927029 0.4546881
-0.3518702 -0.18213512 0.06900379 0.121014826 0.46176237 1.0223142 -0.06230926 0.14576794
0.13270886 -0.06174373 -1.1893266 -0.87250656 0.88082105 -0.100938305 0.35039455 0.078620195
0.33362064 0.3944994 0.97058856 0.76528627 0.29058933 -0.39927018 -0.5000129 0.6276483
-0.07747909 -0.3052795 -0.6246996 -0.5812398 -0.43512926 -0.30077454 0.16124707 -0.39740148
-0.70550334 -0.44523737 0.030908827 0.27592212 1.1566637 0.6385783 0.19425915 -0.2524194
-0.58745694 0.9197393 -0.5778785 -0.47463825 0.8163758 0.6468632 -0.33547938 0.6502482
-0.090671286 0.42573988 -0.009084288 0.4303697 -0.20191278 -0.19130497 -0.5265561 -0.24903297

static_variable_selection.single_variable_grns.Voltage-Battery_center.fc2.bias f4 [8]
00000000: a5f0 003e b9ca 7fbd 74fd b5bd 3579 4cbd
00000010: 1286 c53c 01cf 9fbc 5185 883d bf46 1abc
0.12591799 -0.06244919 -0.08886233 -0.04992028 0.024111781 -0.019507887 0.06666053 -0.009416281

static_variable_selection.single_variable_grns.Voltage-Battery_center.gate_norm.glu.fc.weight f4 [32, 8]
00000000: b256 cabc 3adf 6ebe 132a e43d e8d6 15be
00000010: 251f 80be e87b 09bc 9a78 75be 6e22 a0be
00000020: f066 86be 7809 abbe 28e6 01be 7140 9a3e
00000030: f7b2 de3d 2f69 1dbe d492 e53c 6297 9b3e
00000040: 1ced f9bd d4c8 11bd 7285 b4be 7af2 f8bd
00000050: d475 20be 6eda 52be 2778 ff3d 8ff8 b5be
00000060: c721 a93e 02a1 15bd b7c0 97be ace2 703c
00000070: 1ba0 8bbe de18 a13e 1066 5abd 8581 d33d
00000080: e38d bdbd ce4b 793d ecba 9d3e 1c59 b83e
00000090: 8d01 ce3d 6096 6bbe 0367 643e 7deb b33d
000000a0: 6e93 b9bb 389a 73be bda2 943d 9d18 01be
000000b0: 362c 063f c875 11be 7356 8ebe 7156 c6bd
000000c0: b849 29be 0aec 79bd c5b3 3e3e 1c46 54bd
000000d0: c009 433e 6db1 a5be f95b 82bd 1f5f 8ebe
000000e0: 81a9 d23e e359 0c3f 21fd 3c3e 43fc a9bc
000000f0: 62c8 eb3c d609 d33e a638 643e fec2 823d
00000100: 63b1 833d 5911 453e c7f8 603e c6e1 5cbe
00000110: 22db b5bc 720f 89bd 24b7 4f3e e8df c1be
00000120: 4ff4 d93d 02c1 eebd 9f17 a23e 01ce cc3d
00000130: 0ebe 1fbd 0a96 1b3e b460 39bc 9da3 98be
00000140: 1719 c43e 2522 3d3e af6c 3a3e d568 cb3c
00000150: 41ff 353e d326 9ebd 062a 36be 5ed9 b63e
00000160: 7c8a 8e3d 9a7d 4f3e 1359 95be 8abe b03e
00000170: efc9 26be ea5b 873e 0fa2 af3e 1404 4d3e
00000180: 2890 6e3e d5e6 ca3e f61e 623e 0491 2dbe
00000190: e14b 793e d141 0e3e 29e2 b03e 4f52 57bd
000001a0: 28aa 983d ebba 633e 8325 96be cc35 883e
000001b0: 406f 6bbe c6c1 6fbe 53f7 d4bd 5b8a f13d
000001c0: f5c8 77be c841 98be eaec 63be ce03 383e
000001d0: 538e 8ebe 251d 9bbe a6b5 0dbd cde8 0c3d
000001e0: 92a8 d7bd 3122 2ebb 8c89 4abe e3fa 74be
000001f0: 8973 21bc c7e5 42be 789b 9cbc bce0 a0be
00000200: af37 12be 6c74 373e ff47 a9be 3da5 ab3e
00000210: 80e0 30be c735 03be a00e 37be b244 0cbe
00000220: 75a2 dfbc 3b92 9cbe feed 593d 8aa7 c1bc
00000230: cb95 ae3e ed93 903e 2814 7b3e 6b4f da3d
00000240: c62b ad3c 3abc 453e 826a bc3e 4671 ddbd
00000250: 43f7 d53d 23ed 15bf 6943 383d 39ff e43c
00000260: 323c 863e 65cc 173e c303 83bd 5d6d 8ebe
00000270: 61f9 8fbe 5693 27bd 0669 9bbd e322 f3bd
00000280: e628 893e d86a e6bd e2a3 a0be f244 843e
00000290: 0551 2f3d 37be 82be c7be b33e bec5 383e
000002a0: b3e8 d5be 6535 9ebd 93ec 243e b923 043e
000002b0: 323e 0a3f 7eeb b5be e2e1 753d 716d fbbd
000002c0: 04d2 9bbe e1ee 4a3e 69e3 35be b6d8 993d
000002d0: 5ba3 7c3e 9685 c1be 999d c7be d1ab 263e
000002e0: 5ef2 953e fabc 9d3d a95b ec3e b990 773d
000002f0: 2609 523d c40d 16be 92ae 8c3e f04d c63d
00000300: fa78 7ebd ddc5 083e d1b1 99be 56f9 703e
00000310: d797 aebc 2964 23be 5985 ef3c d558 993e
00000320: af61 0d3e 16bd 7ebe 6aac 80be da46 08bd
00000330: 2e32 cfbd b47f a0be 4db6 c73e e1da 9f3c
00000340: c746 e9be a195 ae3c 9efa 453e f3fd 15bd
00000350: 5a81 ae3e b889 65be fb62 433a 42f4 fb3e
00000360: 0003 d43e 443d 2d3e 6edb 80be 055a a63d
00000370: 6635 a93d 3afb 5a3d 6473 08bd 536f 0c3e
00000380: b743 68be 0dc6 4ebe b48e 5ebe f9a8 8bbe
00000390: 4c9f 3dbe 59e6 903e b74a b33d bdfc 9fbe
000003a0: d8ab d5bd 15b5 0f3e 6e49 71be d145 afbd
000003b0: ec93 44be 6cdb 0dbe 758f ab3d 8af5 e33c
000003c0: cd55 883e 1482 b83e 0335 663e f458 c5bd
000003d0: 45e6 99be 7a62 f93d b2a3 c3bd e2e2 e63d
000003e0: 6831 d2bd 2d44 15be 0099 babe 5dae 6e3e
000003f0: aac1 803e f967 8b3e 3b97 f6bc aba0 4b3e
-0.024699543 -0.23327342 0.111408375 -0.14632761 -0.2502376 -0.008391358 -0.23971787 -0.31276268
-0.2625041 -0.33405662 -0.12685454 0.3012729 0.108739786 -0.15372156 0.028024115 0.30388933
-0.12203428 -0.035591915 -0.3525806 -0.12155624 -0.15669948 -0.20591137 0.12474089 -0.35541198
0.33033583 -0.036530502 -0.29639217 0.01470248 -0.27270588 0.31464285 -0.05331999 0.10327438
-0.09255578 0.06086331 0.30806673 0.36005485 0.100588895 -0.23006582 0.22304921 0.0878515
-0.005663327 -0.23789299 0.07257602 -0.12607045 0.5241121 -0.14205086 -0.2780033 -0.09684456
-0.16532028 -0.06101612 0.18623264 -0.051824674 0.19046688 -0.32361928 -0.06365199 -0.27806947
0.41144946 0.54824656 0.18455936 -0.02075017 0.028782073 0.41218442 0.22287235 0.06384848
0.06430318 0.19244899 0.21969901 -0.215705 -0.022199217 -0.06692399 0.20284706 -0.3786614
0.10642301 -0.11657907 0.31658646 0.100002296 -0.03899961 0.15193954 -0.01131456 -0.29812327
0.38300392 0.18470056 0.18205522 0.024830261 0.17773153 -0.07722249 -0.17789468 0.35712713
0.069600075 0.20262757 -0.2916952 0.3452037 -0.16287969 0.26437312 0.34303328 0.20021087
0.23297179 0.39629236 0.22082123 -0.1694985 0.24345352 0.13892294 0.34547547 -0.05256873
0.0745433 0.22239272 -0.29325494 0.26603544 -0.22991657 -0.23413762 -0.10398736 0.11793967
-0.24197753 -0.29737687 -0.22258344 0.17970201 -0.2784296 -0.30295673 -0.03459706 0.034401704
-0.10530199 -0.0026570673 -0.19779032 -0.2392383 -0.009854206 -0.19032966 -0.019117102 -0.3142146
-0.14279054 0.17915505 -0.3306274 0.33524504 -0.1727314 -0.12813483 -0.17876673 -0.1369808
-0.027299145 -0.30580315 0.053205483 -0.02363946 0.34098658 0.28237858 0.24519408 0.10659679
0.021139037 0.19310084 0.3680001 -0.10812621 0.10447552 -0.58564967 0.044986162 0.02795373
0.262178 0.14824064 -0.06397202 -0.27817813 -0.28119949 -0.040911995 -0.07588391 -0.118718885
0.26789016 -0.112508476 -0.31375033 0.2583385 0.042801876 -0.25535747 0.3510649 0.18044183
-0.41779098 -0.07725028 0.16105871 0.12904252 0.5400115 -0.3553123 0.06002987 -0.12276734
-0.30433667 0.19817688 -0.17762531 0.075120375 0.2467169 -0.3779723 -0.38987425 0.1627648
0.29286474 0.0770206 0.4616368 0.060440753 0.051278256 -0.14653689 0.27476937 0.09682834
-0.06212709 0.13356729 -0.30018476 0.23532614 -0.021312637 -0.15956177 0.02923839 0.29950586
0.13806795 -0.24876818 -0.25131541 -0.033270694 -0.10116993 -0.3134743 0.39006272 0.01951355
-0.4556181 0.021311583 0.19333884 -0.036619138 0.34083062 -0.22415817 0.0007453409 0.4920979
0.4140854 0.16917902 -0.25167412 0.081226386 0.08262138 0.053462245 -0.03331317 0.13714342
-0.22682081 -0.20192738 -0.21734124 -0.27277353 -0.18517798 0.2830074 0.08754485 -0.31247512
-0.10433167 0.14033921 -0.23563167 -0.08558238 -0.19197053 -0.13853234 0.08376972 0.027827043
0.2662796 0.36036742 0.2248116 -0.09636107 -0.30058494 0.12176986 -0.09552707 0.11273743
-0.1026333 -0.14576788 -0.36444855 0.23308702 0.25147754 0.27227762 -0.03010141 0.19885509

static_variable_selection.single_variable_grns.Voltage-Battery_center.gate_norm.glu.fc.bias f4 [32]
00000000: 7441 8a3e 11e6 d73d 0ac9 8c3d af47 a13d
00000010: 6157 96bd ad40 153e c1fc a53d 358f b83c
00000020: e918 8c3d 84e1 813d acb4 d2bc 9ce7 dcbd
00000030: 35d3 8fbd 409a debd e70c 33be 5cd4 a93c
00000040: b494 9d3c 1cbc 153d 45b0 52be 3aff 313b
00000050: 468c 60be d54a 1ebc 0c8b 883c fc00 023e
00000060: d4a4 ecbd 0ab4 77bd b12b b7bd 01ff 86bd
00000070: 86db f13c 4805 42be 6c8c 3c3d 193b 46be
0.27003062 0.105419286 0.06874283 0.07875001 -0.07340885 0.14575453 0.081048496 0.022529224
0.06840689 0.06341842 -0.025720917 -0.107863635 -0.070227064 -0.108692646 -0.1748539 0.020731144
0.019235946 0.03655635 -0.20575054 0.0027160184 -0.2192851 -0.009661396 0.016667865 0.12695688
-0.11554876 -0.060474433 -0.0894388 -0.06591607 0.029523622 -0.18947327 0.046032354 -0.19358481

static_variable_selection.single_variable_grns.Voltage-Battery_center.gate_norm.add_norm.norm.weight f4 [16]
00000000: cdda 3c3f 9f1f 933f ab2d a53f c5f1 a33f
00000010: d8b4 493f 9e43 a03f 4258 893f 0d2f 7d3f
00000020: 0cfa 823f 84f9 713f d839 833f b399 7a3f
00000030: fe88 833f e4ba 503f b065 883f 2996 a23f
0.73771363 1.1494025 1.2904562 1.2808157 0.7879157 1.2520635 1.0730059 0.9889992
1.0232558 0.94521356 1.0252028 0.97890776 1.0276182 0.8153517 1.0656033 1.2702075

static_variable_selection.single_variable_grns.Voltage-Battery_center.gate_norm.add_norm.norm.bias f4 [16]
00000000: 7ca9 353e 2cbb 5cbc 9ed3 23bd b732 583c
00000010: 2355 a2bc 4567 f53d b7ec 573d 311d e0bd
00000020: 304b 50bd d6e8 363d 99b1 84bd e654 bebc
00000030: 9eb7 a6bd 3085 03be c2d1 08be ce82 453d
0.17740434 -0.01347236 -0.039996736 0.013195685 -0.019815987 0.11982588 0.052715983 -0.10943068
-0.050852954 0.044655643 -0.064791866 -0.023233842 -0.08140491 -0.12843776 -0.13361266 0.04822045

static_variable_selection.single_variable_grns.Voltage-Battery_scale.resample_norm.mask f4 [16]
00000000: 2b1f 11be a43e 99bb 7c62 a4bc abaf 37be
00000010: ff12 973d ccfa 94bd 1ecc 46ba a53a 0cbc
00000020: 284d 12be e46e b23b 633a 2b3e a82f 07be
00000030: 1117 9abc e2d2 273e ae83 023e a477 8f3c
-0.14172046 -0.004676657 -0.020066492 -0.17938106 0.0737667 -0.07274398 -0.00075835164 -0.008558904
-0.14287245 0.005445348 0.16721492 -0.13201773 -0.018809827 0.16389039 0.12745544 0.017513104

static_variable_selection.single_variable_grns.Voltage-Battery_scale.resample_norm.norm.weight f4 [16]
00000000: 9fe2 643f 08a0 833f a3bb 603f 48ae 683f
00000010: 876f 903f bebc 693f 2d55 803f 6496 813f
00000020: cb2c 693f b624 833f 17dd 9a3f 861b 703f
00000030: 104b 743f c121 993f 3db8 8c3f 74ab 853f
0.89408296 1.0283213 0.8778631 0.9089093 1.1284035 0.9130362 1.0025994 1.012402
0.91083974 1.0245578 1.2098721 0.93792 0.95427036 1.1963426 1.0993725 1.0442948

static_variable_selection.single_variable_grns.Voltage-Battery_scale.resample_norm.norm.bias f4 [16]
00000000: 8979 073e 6ede d7bb c54d 9d3d 879a 6bbd
00000010: 7e09 d73d 99ea adbd 1969 37bc 2e27 96bb
00000020: b10c 863d 9223 77bd 4492 433e 5590 dfbd
00000030: 0d04 bdbd 7432 16be 30ad 79bd 6816 8c3d
0.13229956 -0.006587795 0.07680849 -0.057520416 0.10499857 -0.084920116 -0.011194491 -0.0045823073
0.065453894 -0.060336657 0.19098765 -0.10916201 -0.09229288 -0.14667684 -0.06095618 0.06840211

static_variable_selection.single_variable_grns.Voltage-Battery_scale.fc1.weight f4 [8, 8]
00000000: 3b17 a4be 044b 77be 817b e53c c5bd 403f
00000010: 78a9 ed3e 2e72 8cbd f2e1 263e 9b61 25bd
00000020: 0d2c 1c3f cbc7 463e 7c02 4ebe 4177 b13e
00000030: c315 c7be 003c b4bf e5b7 643e 697a 20bf
00000040: b19f f2be cd9e 12bf 9f18 a0be defa 8c3d
00000050: bfa7 023e e049 43bf e866 80be b692 c53e
00000060: 4861 e2ba 4eb9 8bbe 8483 a33e 15ed bb3d
00000070: 26de 0e3f 1278 bf3e e3c0 dbbe b5a6 47be
00000080: 90ec ce3e ac52 ec3d bcfd 4c3f 19b2 a2bc
00000090: e5fd c1be 578e 08bf fb02 643f f0c0 5abe
000000a0: 30df 013f b566 37bf 3d21 ab3e 8914 8ebe
000000b0: 9e17 263b 95c6 76bf e27a 263e 348e 0a3f
000000c0: 7d06 0cbf 1170 89bc 5444 45bd b2aa 21bf
000000d0: f82a 1b3f 5c64 1e3e 22a2 5fbe 9d7e b93e
000000e0: 4eb7 e53e f676 84bf 0573 d73e 5491 7a3f
000000f0: 59c3 df3c 0810 59be c96a 893e a7f2 ad3e
-0.32048973 -0.2414971 0.028012993 0.75289565 0.46418357 -0.068577155 0.16297129 -0.040376287
0.61004716 0.19412152 -0.20118135 0.34661296 -0.3888379 -1.408081 0.22335775 -0.62686783
-0.4738746 -0.5727356 -0.31268784 0.068837866 0.12759303 -0.762846 -0.2507851 0.38588494
-0.0017271424 -0.27289814 0.31936276 0.09176079 0.5580772 0.37396294 -0.42920598 -0.19497187
0.40414858 0.11539206 0.8007467 -0.019860314 -0.3788902 -0.53342193 0.8906705 -0.21362662
0.5073118 -0.71641093 0.33423796 -0.27750042 0.0025343667 -0.9639676 0.16257814 0.54123235
-0.546974 -0.01677707 -0.048160866 -0.63151085 0.6061244 0.15467972 -0.21839193 0.3622941
0.44866413 -1.0348804 0.4207994 0.97878003 0.027314829 -0.21197522 0.26839283 0.33974192

static_variable_selection.single_variable_grns.Voltage-Battery_scale.fc1.bias f4 [8]
00000000: 218c 8f3d c0e8 54be b240 bebd 629c 673a
00000010: e107 51bd efea 42be bff5 ecbd c9f8 52bc
0.07009149 -0.20791912 -0.092896834 0.00088352535 -0.051032905 -0.19034933 -0.1157031 -0.012876698

static_variable_selection.single_variable_grns.Voltage-Battery_scale.fc2.weight f4 [8, 8]
00000000: d136 03bf cc12 c73e a43b 33bf 53e2 e73e
00000010: d702 203f a69d 9fbc 0421 c0be 8427 8bbd
00000020: cdf3 95be 6a2c a6be 6568 d43d ea08 c9be
00000030: bd7f 0ebf 14ed ea3e fdc9 e93d 9cb5 fc3e
00000040: be7b cabe 4463 86be 0ca3 123f e959 d83e
00000050: 9241 1fbe 81e9 9c3e 7ce3 60be 9b0e 41bd
00000060: 7adb e7be d774 4f3d 1e85 abbe 7ffe b23d
00000070: c6cd 313e ef6f 463d d95f 28be d529 2fbe
00000080: 9776 6e3c da2e 813e dbf5 f93e e39e 653e
00000090: 6ac5 b63e 243a 603f 769b d73e e825 e13a
000000a0: 74aa 3f3e 9f52 88bf 46ec 683e a211 9ebf
000000b0: 7bee 1e3f ac73 20be fb3f 793f 5d4a f93e
000000c0: 14db 44bf 99a6 6a3e 679e a8be b14b 68bf
000000d0: be37 5cbe d932 173e f7de b03d 3f4d 4dbe
000000e0: 8b96 36bf d421 603e 172a 8abf 912d 2c3e
000000f0: a030 953f 1796 223d b9a7 09bf b0a9 ce3e
-0.5125552 0.38881528 -0.7001288 0.4528986 0.62504333 -0.019484352 -0.3752519 -0.067946464
-0.29287568 -0.3245576 0.10371474 -0.39264613 -0.55663663 0.45884 0.11415479 0.49357307
-0.39547533 -0.2624761 0.5728004 0.42256096 -0.15552357 0.306469 -0.21961778 -0.04713307
-0.45284635 0.050648537 -0.33499998 0.087399475 0.17363653 0.048446592 -0.16442813 -0.17105801
0.014554641 0.25231057 0.48820385 0.22423892 0.3569749 0.87588716 0.42110795 0.0017177435
0.18717366 -1.0650214 0.22746381 -1.2349131 0.6208264 -0.15669125 0.9736325 0.48689547
-0.76896787 0.22915114 -0.3293335 -0.90740496 -0.21505639 0.1476549 0.08636277 -0.20048998
-0.7132346 0.21887904 -1.0794095 0.16814257 1.1655464 0.039693918 -0.5377155 0.40363836

static_variable_selection.single_variable_grns.Voltage-Battery_scale.fc2.bias f4 [8]
00000000: 7be2 12bb 6255 7bbd 947d 07be a95c cebc
00000010: 6657 fabd af42 88bd 6d34 20bd 6efa b83a
-0.0022412825 -0.061360724 -0.13231498 -0.025190668 -0.12223701 -0.06653344 -0.039112497 0.001411272
