models/predictorVb2424_cpu.ckpt (torch, 607203 bytes, 904 tensors)

input_embeddings.embeddings.ID.weight f4 [50, 14]
00000000: b01e b73f 2d0d d33f 666d 6b3f 2385 0fc0
00000010: a6ba 6b3f 08f5 50bf 999b c3bc da41 a7bf
00000020: 75e2 67bf 2ac2 d43f c463 0bbf 79e8 cabf
00000030: eeba 26bf 21a0 cfbe 9f30 3fbf 7516 5b3f
00000040: 4a19 da3f 16f3 9a3e 7f86 94be 5887 7e3f
00000050: 2bcc 24bf e800 4b3f be41 693f 37b3 0b40
00000060: 6837 b73f 4778 843f 21b3 2fbd 15ec 783f
00000070: 37fb 21be 4bd3 9e3e a523 19bf 4265 f03e
00000080: 4fba a6bf d6be 80bf 6fa2 febd d216 cd3f
00000090: 7980 ba3e d15b c3bd d385 613f 7966 1cbf
000000a0: 91da e3bf 9bc3 fc3e 9747 2ebf b23d 60bf
000000b0: 3474 a7bf 449f 1040 3733 97bf 6f84 fcbe
000000c0: 0c8f 7fbf 11a2 e8be bad4 2a3e f145 a63e
000000d0: 97f5 35bf fd1e 893f 8b62 2cbf ca14 5ebf
000000e0: 06ed 1ec0 8a33 4a3e 932f 663d f514 5d3f
000000f0: 2257 093e a855 f93f 9f12 67bf 92f9 af3f
00000100: 1526 783f 0977 853f a326 1840 bc1b 833f
00000110: 0363 303e 7de7 123e cf50 ebbf ffb1 ba3f
00000120: edf9 e0bd 1777 f73e 1bac 6e3e ee59 c73e
00000130: b189 013f ca2c 14bf 8b3f 19c0 1dcd 2ebf
00000140: d397 9a3e d1ba 0abc d1f4 92bf 261a 5bbe
00000150: a9c4 a03e c598 1d3f ed82 9d3f f640 773d
00000160: 1955 233f ce35 7dbe f0fe 81bf a8d6 0e3f
00000170: 9978 fcbf 5f51 3abf 6f76 ad3f aed6 e83e
00000180: cb0d 27c0 e611 4d3f 4ae3 163f 29c8 3dbe
00000190: 86d1 9e3f cb09 e83e 58c5 623f a8cf c13d
000001a0: e54c 0ebe a0a9 2fbd 7b92 803d 5da2 783f
000001b0: 12ac 0d3f 5a5e b53f 1dee 19be 94d1 403d
000001c0: 3e7d ebbf 1490 f1bc f05e 27bf 6f8b e73e
000001d0: 821a 613f ded6 0c3e 84c5 bebe e274 183f
000001e0: 564a ebbd 94a5 a63e 6dda 993e 1585 683f
000001f0: 5eea 803f 907c f03e d3eb fa3e ab00 263f
00000200: 539a fe3f e392 843f cd60 9bbf a555 32bf
00000210: ac1e eebe f726 c43f 28b7 983e e9d4 523f
00000220: b5f5 a33f cbe5 aebe 574c fdbf 9b19 963f
00000230: 90bd b1be 2a0d 613f 4312 5ebf ad28 023f
00000240: e172 75bf fa94 623f 35fe bc3f 16af cf3f
00000250: 6c91 093f 1d93 49bd 93d9 24bf eb27 9a3a
00000260: cf34 c43e 21f8 583f 5f7b 80be d518 b03f
00000270: 4ff3 25c0 38b3 33bf 12ac a7bf 0103 5b3f
00000280: b5f5 e5bf 2027 9a3e 2d40 133e f75b ecbe
00000290: f662 463e a108 76bf 4d16 803e 6520 7abf
000002a0: d3ce e9bf e359 ad3f 874c d13f 23a7 133e
000002b0: de5e b2bf 7ae7 723f 1294 283f 8083 fd3f
000002c0: 670c b8bd 4649 043d 3073 44bf 35eb 06be
000002d0: 0ffc 84bf 8887 b1bf 07fa 75bf b273 85be
000002e0: 3244 e3be c872 b5bf ccc5 e9bf faeb a53e
000002f0: ca6b 943f 50b3 2cbf 658c 703f 2309 6b3f
00000300: a1a8 e03f fc67 80bf 8c8d 0f3f 4178 38bf
00000310: 7ddf 1cbf d430 45be 5ecb 9f3d c180 973f
00000320: f2a4 793f 72ad ea3f 9df1 9bbf e7f8 13bf
00000330: 7bbe c03e 85a5 ae3e d994 8b3f c48a 293d
00000340: 9937 fcbe d81a 68bf cb5d b0be 8555 aebe
00000350: 8f5f c03e b2f0 c73e 8c31 03bf d1a8 24c0
00000360: 5ad5 e5bd 8169 9e3f 641a e1bf b36f 9e3f
00000370: d1af 0f3c 9a66 e8be d9a1 963f bb9a bb3f
00000380: 1039 0cbf 7eeb ba3f 331f 2a3f dde8 75bf
00000390: d7d8 04bf c796 bc3d 7143 d23e aba4 ad3f
000003a0: de05 38bf d6b4 94bf 9da6 03c0 7369 bdbf
000003b0: d3c5 4d3f 3d16 873f 5400 223d 12aa aa3e
000003c0: a8f8 e6be 34c7 fe3e 6eb8 8abf caf8 823e
000003d0: 58ce 69be 8920 8fbe 42a2 48bf ad58 a73f
000003e0: e073 973f 290b d6be ca07 8e3f f590 2d3f
000003f0: be29 c73e c54b 993e e177 1e3f 0de4 7bbd
1.430624 1.6488396 0.91963804 -2.242501 0.9208168 -0.8162389 -0.023877906 -1.3066971
-0.9057992 1.6621754 -0.54449105 -1.5852195 -0.6512898 -0.40551856 -0.74683565 0.8558114
1.7038968 0.30263585 -0.29008862 0.9942527 -0.64374036 0.7929826 0.9111594 2.1828134
1.4313784 1.0349206 -0.04289544 0.9723523 -0.15818487 0.3102058 -0.59820014 0.46952254
-1.3025607 -1.0058239 -0.124333255 1.6022589 0.36426142 -0.09538997 0.88094825 -0.6109386
-1.7801076 0.49367985 -0.6807799 -0.8759414 -1.3082337 2.2597208 -1.1812505 -0.4931979
-0.9982765 -0.45436147 0.16682711 0.32475236 -0.71077865 1.0712582 -0.67337865 -0.8675047
-2.4832168 0.19746223 0.056197714 0.863601 0.13412145 1.9479265 -0.9026279 1.3748038
0.9693311 1.0426952 2.3773582 1.0242839 0.1722527 0.14346118 -1.8384036 1.458557
-0.109851696 0.48333046 0.2330784 0.38935798 0.50600725 -0.5788084 -2.3945034 -0.6828173
0.30193958 -0.008467392 -1.1480962 -0.21396694 0.3140004 0.6156123 1.230558 0.060364686
0.63801724 -0.24727556 -1.0155926 0.5579629 -1.9724303 -0.7278041 1.3551768 0.45476288
-2.6102169 0.80105436 0.58940566 -0.18533386 1.2407691 0.4531997 0.8858237 0.094634354
-0.1389652 -0.042886376 0.06277939 0.97122747 0.55340683 1.4169419 -0.1503224 0.04707487
-1.8397596 -0.029487647 -0.6537924 0.45223567 0.8793107 0.1375384 -0.37260067 0.5955335
-0.11488788 0.325482 0.30049458 0.9082807 1.0071523 0.46970034 0.49008045 0.6484477
1.9890846 1.0357326 -1.2138916 -0.69661933 -0.46507776 1.5324391 0.29827237 0.82356125
1.2809359 -0.34159693 -1.9788922 1.1726564 -0.34714937 0.8791071 -0.86746615 0.50843316
-0.95878416 0.8850857 1.4765078 1.6225307 0.5373752 -0.049212564 -0.6439449 0.0011761164
0.3832154 0.84753615 -0.25094125 1.3757578 -2.5929754 -0.7019534 -1.3099387 0.8555146
-1.7965609 0.30107975 0.1437995 -0.46163914 0.19373688 -0.96106917 0.25017014 -0.9770568
-1.8266243 1.3543056 1.6351479 0.14419226 -1.3935201 0.94884455 0.6585094 1.9805756
-0.089867406 0.03229644 -0.7673826 -0.13175662 -1.0389422 -1.3869486 -0.96084636 -0.2606483
-0.44387966 -1.4175653 -1.8263488 0.32406598 1.1595395 -0.6746111 0.93964225 0.91810817
1.7551461 -1.0031734 0.5607536 -0.7205849 -0.61278516 -0.19256908 0.07802461 1.1836168
0.9751731 1.8334181 -1.218311 -0.5780167 0.37645325 0.34110656 1.09048 0.041392103
-0.49261168 -0.9066596 -0.34446558 -0.3404962 0.37572905 0.39050823 -0.5124748 -2.5728037
-0.11222334 1.2375947 -1.7586179 1.2377838 0.008769945 -0.4539078 1.1768142 1.4656595
-0.5477457 1.4603117 0.66453856 -0.96058446 -0.5189337 0.09208446 0.4106708 1.3565878
-0.7188395 -1.1617687 -2.0570443 -1.4797806 0.8037998 1.0553662 0.039551094 0.33332878
-0.45111585 0.49761355 -1.0837533 0.25580436 -0.2283262 -0.2795451 -0.78372586 1.3073937
1.1832237 -0.4180539 1.1096127 0.6779931 0.38899034 0.2994062 0.6190167 -0.061496783

prescalers.encoder_length.weight f4 [8, 1]
00000000: 68b7 cb3e 5af9 69bf a4e5 b6be d461 94be
00000010: 3c95 83be 445d 103f ec25 ba3e 40cc 4a3f
0.39788365 -0.91396105 -0.35722077 -0.28980887 -0.25699794 0.5639231 0.36357057 0.7921791

prescalers.encoder_length.bias f4 [8]
00000000: b17a 99be 2225 c33e e224 a23e 078d 5dbf
00000010: 82f8 3cbf ff99 1bbf 823c 053f 8d44 6abf
-0.2997642 0.38114268 0.31668764 -0.86543316 -0.7381669 -0.60781854 0.5204545 -0.9151085

prescalers.Voltage-Battery_center.weight f4 [8, 1]
00000000: c0d4 5ebf 4e69 0f3f 921e 0a3f 5488 523f
00000010: aa43 41bf c85d 3bbf 1853 033f 16a0 5e3f
-0.8704338 0.5602006 0.53952897 0.8223927 -0.7549387 -0.73189974 0.51298666 0.8696302

prescalers.Voltage-Battery_center.bias f4 [8]
00000000: c3ff f03e 1b8a 193e ef67 af3e 04a2 493f
00000010: 116a 1dbf 5277 cdbe 343b 1e3f 96ff 19bf
0.4707013 0.1499409 0.34258983 0.7876284 -0.6148997 -0.40130097 0.61809087 -0.6015562

prescalers.Voltage-Battery_scale.weight f4 [8, 1]
00000000: 6029 0dbf b2e0 3a3f 1c8c a13e 7069 a53e
00000010: 9c01 d9be 801b 62bc b24c 6a3f 06a8 19bf
-0.5514126 0.7299911 0.31552207 0.32307005 -0.4238404 -0.013800502 0.9152328 -0.6002201

prescalers.Voltage-Battery_scale.bias f4 [8]
00000000: 2622 153d 90f8 103f fc66 1dbf 1dbf 423f
00000010: 8469 0cbf e7f2 0dbe be7f f2be 3c52 1ebf
0.03640952 0.56629276 -0.61485267 0.76072866 -0.54848504 -0.13862191 -0.47363085 -0.6184423

prescalers.Voltage-Battery.weight f4 [8, 1]
00000000: 2834 7bbf 9458 103f 7006 883e 12c5 6fbf
00000010: bac4 24bf b005 7d3f 50b4 c33e f06f cd3e
-0.9812646 0.5638516 0.2656741 -0.9366008 -0.6436268 0.98836803 0.38223505 0.40124464

prescalers.Voltage-Battery.bias f4 [8]
00000000: 38f5 0bbf 1742 eebe 19e2 f9bc 2e25 25bd
00000010: 47fe 53bf 6998 4a3e 9b59 c4bd 8f01 c7be
-0.5467105 -0.46534798 -0.03050332 -0.04031866 -0.8280987 0.19784702 -0.095874034 -0.38868377

prescalers.Current-Solar.weight f4 [8, 1]
00000000: 80f5 0d3e 78ee cabe bc3f 853e 8c18 c13e
00000010: 5ed8 06bf 20d8 7dbf ccff 053f f842 743e
0.13863182 -0.39635062 0.26025188 0.3771404 -0.526739 -0.99157906 0.5234344 0.23853672

prescalers.Current-Solar.bias f4 [8]
00000000: c7a2 c2be 608a 763f 0803 01bf 007c 0f3f
00000010: d787 b73e df97 2bbf 55be 1e3f 6f61 7bbf
-0.38014814 0.96304893 -0.5039525 0.56048584 0.35845825 -0.6702861 0.62009174 -0.98195547

prescalers.Voltage-Solar.weight f4 [8, 1]
00000000: e8d3 0dbf 50b7 2abe 508e 2cbf c416 7a3f
00000010: c064 4dbe 745c cb3e e095 64bf e05e 133f
-0.5540147 -0.1667149 -0.6740465 0.9769099 -0.20057964 0.39718974 -0.8929119 0.5756664

prescalers.Voltage-Solar.bias f4 [8]
00000000: 3c6c aabe 6381 5dbf 48df 5b3e ce18 083f
00000010: 8b59 823f afd5 d5be 02c9 d1be ebbd 083e
-0.332857 -0.86525553 0.21471894 0.5316285 1.0183576 -0.4176459 -0.4097367 0.13353698

prescalers.Current-Battery.weight f4 [8, 1]
00000000: c0e2 8a3e 8cd9 c43e 1683 0c3f 2032 68be
00000010: d039 0e3f 24bf 3c3f d4be 85be 1022 363f
0.27126122 0.38447225 0.5488752 -0.22675371 0.55556965 0.7372916 -0.26122153 0.71145725

prescalers.Current-Battery.bias f4 [8]
00000000: 4d67 1a3f 942c 643f c435 16bf 8d48 fcbe
00000010: d888 13be 2ec7 ed3d 339a 013f 14af 6cbf
0.60313874 0.8913052 -0.5867579 -0.49274102 -0.1440767 0.11610256 0.50625914 -0.9245465

prescalers.relative_time_idx.weight f4 [8, 1]
00000000: dc2a 003f c47d b7be e8a6 1a3f 8077 42bd
00000010: 3c47 60bf eadc 0cbf d047 39bf ccee fd3e
0.500654 -0.3583814 0.6041093 -0.047477245 -0.87608695 -0.5502459 -0.723752 0.4959625

prescalers.relative_time_idx.bias f4 [8]
00000000: 4ee1 3dbf 090f b83c 1a4e 993e a5bc 00bf
00000010: 3b81 aa3e 5c7a 78bf 6228 4bbf aa07 65bf
-0.7417191 0.022468107 0.299424 -0.5028785 0.3330172 -0.97061706 -0.79358494 -0.8946482

static_variable_selection.flattened_grn.resample_norm.mask f4 [4]
00000000: 6bd2 11be a47e 2abe 7f8b b93d f913 573e
-0.14240424 -0.16649872 0.0905981 0.21003713

static_variable_selection.flattened_grn.resample_norm.norm.weight f4 [4]
00000000: 7b59 6d3f f0b0 663f 0859 6e3f 9614 b23f
0.9271466 0.90113735 0.931046 1.3912532

static_variable_selection.flattened_grn.resample_norm.norm.bias f4 [4]
00000000: c3a2 bbbc 224e 76bd e060 aa3d b0ac f1bb
-0.02290476 -0.060133107 0.08319259 -0.0073753223

static_variable_selection.flattened_grn.fc1.weight f4 [4, 38]
00000000: 1c74 f43d f44a 33bd 4e26 303d 1f7e a4bd
00000010: dbdb 87be 985f a23d e847 80be e61c 1f3c
00000020: a992 42bd 9c58 f53d f6e0 a73d 7196 363e
00000030: e4cd 8c3d 2d8c 67bd c734 9ebd ba2d 363d
00000040: a62b b8bd 915e 033c bd82 5dbe 9ed4 36be
00000050: 70b6 02be b667 bdbd 96b7 9e3e 2d25 96be
00000060: 1e81 a83e bd60 f93d e545 bbbd 8673 40be
00000070: 3fa2 eebd d9ca e73e d184 73bd bc18 413e
00000080: c3b4 343e dd56 c63d 6180 193f 07ab 833e
00000090: 9266 4f3e 44d2 89bc 96a9 c43e bf38 38be
000000a0: e16a a0bd 8baf 49be 2698 d3be c920 5ebe
000000b0: 7095 833e 0a45 a9be e20e 173e 5f42 19bd
000000c0: 9a5f 3e3d 4ada c6be 0949 d03e 3522 00bf
000000d0: 6085 a5bd 7c1e 5cbc 53f7 a83e 6747 b23e
000000e0: 76ee c43e dbbc 0dbe 2242 433e 0080 de3d
000000f0: 4995 a03e c967 c93e 4f9f 863e 9d24 3d3e
00000100: f557 6c3e a787 3abe 0e4a 143f 72bd d1be
00000110: d19b 9f3d 078f 8f3d b9b0 b7bd 55ea 783e
00000120: fe0b e43d 218c afbe fa62 7bbe 2c27 babd
00000130: 8379 ce3e 4c07 83be 6e23 f7be c3cc debe
00000140: 8973 40be 4c05 81be 726f c53d 6dc5 ea3e
00000150: e45a 31be c9af f63e aa7a 643d 9de1 f5bd
00000160: 9baf 6a3d c9cb 0dbf d13e 3d3e 18a2 003e
00000170: f833 803e d726 91be edf3 4f3e 037b 58be
00000180: 20e7 663e 890a 003f a17d 8bbd 3ce1 d93e
00000190: 25c8 913d 9cb9 8f3c 9494 7c3e 92a5 033e
000001a0: 6965 1cbd 48ab a93d 52f7 b2be 7b11 b9bc
000001b0: 9572 3fbe 8c0e a4bd 0cb5 833d d8a6 e63c
000001c0: 0571 76be dc5e 9fbc 0003 0dbf 64bc b73d
000001d0: ce9d 6cbe 6291 88bd 5558 adbd f6fe 633d
000001e0: 3c70 ffbd cdc7 2b3e fd1e 44bf 7556 a43d
000001f0: d888 be3d 92ed fe3e f7b0 2e3e f880 7c3e
00000200: c389 ee3e 2100 ca3d 29c2 543d 0901 ee3e
00000210: 4593 a7be bc89 793d b9df 183e 1720 a33e
00000220: d9fe 31be a2c4 b1be cfc2 173f cc42 913e
00000230: 3318 8cbe c94d 683c cd24 02bf dc03 74be
00000240: 2e52 563d c596 80be 4ea3 813e 3675 3e3e
00000250: 514a 75bd ad33 be3e 2108 cbbc d1f8 853e
0.119362086 -0.043772653 0.04300528 -0.08031868 -0.26534924 0.07928389 -0.2505486 0.00971148
-0.047503147 0.119797915 0.08197205 0.17830826 0.06875208 -0.056530166 -0.0772491 0.044477202
-0.089927 0.008018152 -0.21631904 -0.17854545 -0.12764907 -0.09248297 0.3099944 -0.29325238
0.3291101 0.121766545 -0.09144191 -0.18794069 -0.1165204 0.45271948 -0.059452835 0.18857092
0.1764708 0.096845366 0.59961516 0.2571642 0.20253971 -0.016823895 0.38410634 -0.17990397
-0.078328855 -0.1969587 -0.41327018 -0.21692194 0.2569995 -0.33060485 0.14751771 -0.037416812
0.04647789 -0.38838416 0.4068072 -0.50052196 -0.0808208 -0.013435002 0.33001193 0.348201
0.3846318 -0.13841574 0.19068196 0.10864258 0.31363896 0.39336994 0.26293418 0.18470998
0.23080428 -0.1821581 0.579255 -0.40964848 0.077933915 0.07009702 -0.08969254 0.2430814
0.111351 -0.34286597 -0.24549475 -0.09089503 0.4032708 -0.25591505 -0.48269218 -0.43515596
-0.18794073 -0.25199354 0.09640397 0.4585375 -0.17319828 0.48180988 0.055781044 -0.12005923
0.057296377 -0.55389076 0.18480994 0.12561834 0.2503965 -0.28349945 0.20307894 -0.21140675
0.22549105 0.50016075 -0.06811071 0.42554653 0.07118253 0.01754456 0.24666053 0.12856129
-0.03818265 0.082846224 -0.34954315 -0.022591343 -0.18696053 -0.08010587 0.06431016 0.02815573
-0.24066551 -0.019454412 -0.550827 0.089714795 -0.23107073 -0.066683546 -0.084641136 0.05566307
-0.12472579 0.16775437 -0.76609784 0.08024303 0.093034446 0.49790627 0.17059694 0.24658573
0.4658948 0.09863306 0.051942978 0.46485165 -0.32729545 0.06092237 0.14929093 0.3186042
-0.17382373 -0.3472033 0.5928163 0.28371274 -0.27362213 0.014178702 -0.50837404 -0.23829597
0.052324466 -0.25115028 0.25319904 0.185994 -0.059885327 0.371488 -0.02478415 0.26166394

static_variable_selection.flattened_grn.fc1.bias f4 [4]
00000000: 1ca7 adbc 05b9 173d a825 263d b1f8 233b
-0.021197848 0.037041683 0.040563256 0.0025020058

static_variable_selection.flattened_grn.fc2.weight f4 [4, 4]
00000000: 7611 f63c 499a 23bf 63a9 e9be e8b3 75bf
00000010: bd76 ba3d 53b7 a2be 7814 c3be 5e33 043f
00000020: e29e 4d3f a5cf 953f 2fb3 833e abaf 853f
00000030: 34e7 b73f e0a4 dd3e 6c16 e03e 7461 5fbe
0.030037623 -0.63907295 -0.45637044 -0.9597764 0.09104679 -0.3178049 -0.38101554 0.5164088
0.8032056 1.1703993 0.25722644 1.0444235 1.4367433 0.43289852 0.43767107 -0.21814519

static_variable_selection.flattened_grn.fc2.bias f4 [4]
00000000: 9c7b 3c3d 4dfa b63c 5f9d b73d 854b dcbb
0.04601632 0.02233615 0.08965563 -0.00672287

static_variable_selection.flattened_grn.gate_norm.glu.fc.weight f4 [8, 4]
00000000: 3376 bf3e 7ec3 ee3d 3358 0ebf 50a4 7bbd
00000010: cd5f 95be 6ed9 74bb 0543 a2bd 5b98 28bf
00000020: 539e 00be 8acf 86be 90e0 8bbc c096 ec3e
00000030: 9a52 2dbe 0f19 0e3f 5a1e 1c3e 88e4 1dbf
00000040: 4d4a b33e 88db 073f 81dc 11bf 2a3c 11bf
00000050: e9eb 6f3f 1e7a 7f3f b92b 12bf 315a 83bc
00000060: 9eb6 4ebc 6d69 0bbf a7da 4e3d 50c8 ab3b
00000070: 1b70 4cbe f5b0 6a3e 7cac 0ebf 6228 ce3e
0.37394866 0.11658381 -0.5560333 -0.061435997 -0.29174653 -0.0037361044 -0.07922939 -0.65857476
-0.12560396 -0.26330215 -0.017074853 0.46208763 -0.16926041 0.55506986 0.15245953 -0.61676836
0.35017624 0.53069353 -0.5697709 -0.5673243 0.93719345 0.9979571 -0.57097965 -0.016034218
-0.0126167815 -0.5445774 0.050501492 0.005242385 -0.1996464 0.22919066 -0.5573194 0.40265185

static_variable_selection.flattened_grn.gate_norm.glu.fc.bias f4 [8]
00000000: 1d7f 3dbd 9ba3 32bc c9c6 a43d 677f f4bc
00000010: 430d c5bc 0441 06be 1c38 bbbd 1bf6 243e
-0.046263803 -0.010903264 0.08045728 -0.029845906 -0.024054175 -0.13110739 -0.091415614 0.16109507

static_variable_selection.flattened_grn.gate_norm.add_norm.norm.weight f4 [4]
00000000: 0e4b 283f 4f37 543f efce 4f3f 40bb 9b3f
0.65739524 0.82896894 0.8117513 1.2166519

static_variable_selection.flattened_grn.gate_norm.add_norm.norm.bias f4 [4]
00000000: 6eed a93d f344 e0bd 0145 8bbd 00d3 4e3e
0.08297239 -0.10950651 -0.06800271 0.20197678

static_variable_selection.single_variable_grns.ID.mask f4 [16]
00000000: ad60 81bd 7d25 e23c 8d38 173c 4921 3fbe
00000010: f981 8d3e 6e11 143e 0aca 9cbc ccef 24be
00000020: 18bb 1dbe 8d0a 003e f78c a53e 89de 583e
00000030: 0592 fbbd 2300 4bbe 0b82 65be 5adf 6c3d
-0.063172676 0.027605766 0.009229791 -0.18665041 0.27638224 0.14459774 -0.019139308 -0.161071
-0.15403402 0.12504025 0.3233411 0.2117864 -0.122837104 -0.19824271 -0.22412889 0.057830192

static_variable_selection.single_variable_grns.ID.norm.weight f4 [16]
00000000: 71b3 673f 93b0 613f 1d31 8a3f 2e6e 0d3f
00000010: f540 a83f b109 903f 4aee 703f 4449 8e3f
00000020: 6082 893f 5a95 8e3f 8ac4 a03f c654 853f
00000030: 4070 753f d54b 733f b6dd 763f 2969 583f
0.9050818 0.88160056 1.0796238 0.55246246 1.3144823 1.1252958 0.941136 1.1116109
1.0742912 1.1139328 1.2559979 1.0416496 0.95874405 0.95037585 0.96432054 0.8453546

static_variable_selection.single_variable_grns.ID.norm.bias f4 [16]
00000000: 1987 cabd aace 7cbe b21d 88bc 5675 d6bb
00000010: 683f 40bd 1ac9 9d3d b39d d93d d4db 33bd
00000020: d507 023d 894f 26bd e44d e0bd dd1f a43d
00000030: 87f5 98bd 0d11 4a3c 1e5a bc3c 2424 b53e
-0.09889049 -0.24688211 -0.016615722 -0.0065447493 -0.04693547 0.07704373 0.10625782 -0.043910816
0.03174575 -0.040603194 -0.109523565 0.0801389 -0.074687056 0.012333167 0.02299219 0.35379136

static_variable_selection.single_variable_grns.encoder_length.resample_norm.mask f4 [16]
00000000: 3b3d f5bd 0d78 f23c 714a ed3d 9d18 813d
00000010: b9e7 75bc e6a7 ceba bd15 233e 0971 07be
00000020: 821f 3a3c 6535 29be 2cc2 86bc a065 3b3e
00000030: 1c63 30bd bafb d8bd f727 5b3d ca54 1a3e
-0.119745694 0.02959826 0.11586464 0.06303523 -0.01500886 -0.001576659 0.15926261 -0.13226713
0.011360051 -0.16524275 -0.01645001 0.18300486 -0.043063268 -0.10594888 0.05350491 0.15071407

static_variable_selection.single_variable_grns.encoder_length.resample_norm.norm.weight f4 [16]
00000000: 2b97 753f e54e 563f e8da a53f 8d30 913f
00000010: 0b66 873f 8702 423f 759a 923f 0b19 633f
00000020: 71fd 823f cac8 553f 846e 833f ede9 843f
00000030: 7821 853f 29b0 6d3f 2c11 773f e56a 993f
0.9593379 0.83714134 1.295743 1.1342942 1.0578016 0.75785106 1.1453387 0.8871009
1.0233594 0.83509505 1.0268102 1.0383888 1.0400839 0.92846924 0.9651058 1.1985747

static_variable_selection.single_variable_grns.encoder_length.resample_norm.norm.bias f4 [16]
00000000: c072 753d 10a4 89bd eace 6d3d 2ce5 85bd
00000010: dd10 613d d8eb debd fce7 36be 12ad d63d
00000020: 7c16 93bc de93 203e 443c aa3d c1ec a5bd
00000030: 0620 083e 7ff9 3dbd 4626 28be 092f f63d
0.059923887 -0.067207456 0.058058657 -0.06537852 0.054947723 -0.108848274 -0.17861933 0.10482229
-0.017955057 0.15681407 0.08312276 -0.08101798 0.13293466 -0.046380516 -0.1642085 0.1202069

static_variable_selection.single_variable_grns.encoder_length.fc1.weight f4 [8, 8]
00000000: b39f f7be ca1b 4ebd 6fb7 133f 1c63 8d3e
00000010: fb96 9bbe 9bc6 c8bb 77e8 963e be72 43bf
00000020: 94d2 073f ea0a 983f 3dab b6bc 3faf 60be
00000030: 75ee 13bf f1fc 66be 49a6 ff3d fc8f 0abf
00000040: 10bd 653f b486 093f bc81 523d 08d9 e7bd
00000050: 96a5 9c3e 02ed 89be 887e f7be d18c 9a3d
00000060: 1b55 933d 9d5d 453f d943 d7be 05a6 18bf
00000070: f9a0 933e ca60 063f b18a 3dbe d58c 5f3e
00000080: ba27 363f 4c86 b3bd 5d5d 31bf d19e 8d3c
00000090: 9569 b6bc 1521 dbbd 45ab 383f e476 d6be
000000a0: 679a a13e f4c5 99bf a998 ecbc d115 153e
000000b0: d19b 173f 49f3 443f ff22 04bf 640c 0b3e
000000c0: 252d 68bf 3293 4dbe f259 49bf 6724 35be
000000d0: 26ef debe c158 ef3d 4e7a 0abc e75d da3e
000000e0: d3d1 0c3f 3a9f aebf 4913 c9bd 034f 1e3f
000000f0: 1251 373e 2867 5abf 8367 083e b558 763f
-0.48364028 -0.05031947 0.5770177 0.27614677 -0.30388626 -0.0061271912 0.29474232 -0.7634696
0.5305569 1.1878331 -0.02229845 -0.21941851 -0.5778573 -0.22557427 0.12482888 -0.5412595
0.8974161 0.53721166 0.051393256 -0.11320692 0.30595082 -0.26938635 -0.48338723 0.0754639
0.07193967 0.7709597 -0.4204395 -0.59628326 0.2883375 0.5249144 -0.18509938 0.21831067
0.7115437 -0.087658495 -0.69283086 0.017287644 -0.022267142 -0.10699669 0.72136337 -0.4188758
0.31563112 -1.2013535 -0.028881388 0.14559104 0.5922213 0.76933724 -0.516159 0.13578945
-0.90693885 -0.20075682 -0.7865287 -0.17689668 -0.4354183 0.1168685 -0.008452011 0.42649767
0.55007666 -1.3642342 -0.098181315 0.6183931 0.1790202 -0.85313654 0.13320737 0.96229106

static_variable_selection.single_variable_grns.encoder_length.fc1.bias f4 [8]
00000000: 707a 37be 9659 63ba 6660 093d ef8a 34be
00000010: bd41 10be 7b42 bb3d bd86 e1bd dd3b 88bc
-0.179178 -0.0008672712 0.0335392 -0.17631124 -0.14087577 0.091435395 -0.110120274 -0.016630108

static_variable_selection.single_variable_grns.encoder_length.fc2.weight f4 [8, 8]
00000000: 510a 91be 6d6a a1bb 00cc 0a3f 39e4 683f
00000010: a8f9 f73e d66c 40bf ae30 d03d 9bff 0d3f
00000020: ad47 043f 08c6 e53e 20ab 353f 626e d63e
00000030: c678 823d ceb8 77bf d0be fabe dd26 09be
00000040: dca4 1dbf ae84 6ebe ec0d 78be 526e 2c3e
00000050: af08 003e f78c 09bd ca9d 13bf a29d 7d3e
00000060: 79dc 60bf e8a8 f2be 7d40 fa3e acbe 8ebe
00000070: 836e 0dbf 4778 61be acd1 00be b993 31bf
00000080: 2912 5ebf 360e dfbe b4b3 79bf 1861 a8be
00000090: aeb4 4cbf 902d bebe a38d 303f 60b4 1e3f
000000a0: 0e30 f9be fa59 663f 20e5 7b3e fb1f d1be
000000b0: ef04 dfbe 13c2 cb3e 5437 fdbe 384e c7bf
000000c0: d9bb 2fbe 3ac2 0f3f 2954 14be 0cc9 d23e
000000d0: 624a 00bf 1bfc a6be 72fa 15be 80b3 c0be
000000e0: 0f00 893e f12e 44be 0fc3 07bf 8324 b0bd
000000f0: 1998 d8be 4bfa 89be 13ba 9ebe c892 45be
-0.28328183 -0.004926017 0.5421753 0.9097324 0.4843266 -0.7516607 0.10165535 0.5546815
0.5167187 0.44877648 0.7096424 0.4188109 0.06370692 -0.96766365 -0.48973703 -0.13393731
-0.6157968 -0.23292801 -0.24224061 0.16838959 0.12503313 -0.0335817 -0.5766264 0.24767163
-0.87836415 -0.4739449 0.48877326 -0.27879846 -0.5524675 -0.22018538 -0.12579983 -0.6936603
-0.8674646 -0.4356553 -0.9753983 -0.32886577 -0.79963195 -0.37144136 0.6896612 0.6199398
-0.48669475 0.89981043 0.24599123 -0.40844712 -0.43558452 0.39796504 -0.49456275 -1.5570745
-0.17161502 0.5615574 -0.1448523 0.41169012 -0.501135 -0.32614216 -0.14646319 -0.37636948
0.26757857 -0.19158532 -0.5303201 -0.08600714 -0.4230354 -0.2694877 -0.31001338 -0.19294274

static_variable_selection.single_variable_grns.encoder_length.fc2.bias f4 [8]
00000000: e1eb 04be a74a 6fbd c692 083e 2ea5 2c3e
00000010: f3a2 ebbc f927 c53d cfc4 23bd 777f 4fbc
-0.12980606 -0.058420803 0.1333724 0.16859886 -0.028764224 0.09626765 -0.039982613 -0.012664667

static_variable_selection.single_variable_grns.encoder_length.gate_norm.glu.fc.weight f4 [32, 8]
00000000: 5d6d 453d 8a89 493d ed1b 9b3e c8a8 1bbe
00000010: 422a acbd cb16 ac3d 3e19 5a3e 8c5d ebbd
00000020: 4987 90be 9edf c7bd 9c91 a13e 738a 483e
00000030: 242d af3e 309f c3be 660e 623d 47ca afbe
00000040: 4951 453d a421 cf3e d2e6 c83c bc7b 593e
00000050: 695f bebe 4848 9f3d ddbb 60be ed19 a63e
00000060: 8f5a f13d ae80 38be 9ece 543e 45dd 823e
00000070: cb51 c8be b8c1 d33e 3fa2 a03d dbd3 d63d
00000080: 68b9 ae3e 76ff bf3e 8cd7 b33d 45b7 043e
00000090: 6e8a 523e 4866 7c3e 0d4a 19be 10df 1a3e
000000a0: 2ea4 63be a22e 9abc 8c76 f23d 5432 ee3d
000000b0: b5f6 08be 9a25 a7be e644 fa3d e8e8 933d
000000c0: 52d7 b63e e728 9abe 84b2 6b3d 87a5 d8bc
000000d0: ceaa 1d3f 316b d5be 7b54 273d 80c9 523e
000000e0: d1a0 d2be 8392 243e 1251 13be 7012 84be
000000f0: c4b1 883d 2bd4 a4bc 8286 cc3e 4274 1abe
00000100: 2837 523e 1b57 c3be 3d5d 40bd 8d6b a33d
00000110: 5b80 803e b944 9b3d 8089 b4be 6e35 debc
00000120: 2fac abbe 51aa dc3d a8b8 ddbe 566d bfbd
00000130: 42a9 5d3d f442 51be 5292 71be 3345 953c
00000140: 65a2 d93d e07b 9ebd efa4 6a3e a6e0 8dbe
00000150: 0447 4fbe fe9c 84be 54d6 05bd d86e c7bd
00000160: aa50 bc3e 23c6 4cbe 2645 093e a8de 35bc
00000170: 7279 ce3e 2c82 6e3d 47dc f6be d6ad cdbd
00000180: de12 efbe 3258 a13e 6945 f0be 8203 7bbe
00000190: 64c7 8abc 98bc e3bc 2072 e53e db35 e83d
000001a0: 168c 1b3e 4f95 89bd 9f75 433e 7c4d 053d
000001b0: 774c 3cbe 16e2 e03e 7d75 63be e6f2 94be
000001c0: 66f1 bf3e 3798 8ebe ea7f 16bd 025c 7a3d
000001d0: c1b9 2c3c 1738 97be 0d31 d6be 7e3d 81bd
000001e0: 858a c4bd 3488 aa3d 940f 0e3e 6491 2abd
000001f0: ce89 863e cbdf 46be 39f7 d0bd 7204 aa3d
00000200: 5b0e 6dbd 053d a0be 0a0a 04be 1a9b db3e
00000210: 22ae af3c 796b 0ebd 00d2 643e b1a5 e13c
00000220: 7055 74be fab0 21be 3f1e 53be 1fe7 7f3d
00000230: 95b1 b6be ebd8 bfbc 8b18 3f3e de22 b63e
00000240: 834e de3d f17f 9b3a 81e5 bf3e 8062 873e
00000250: 2408 473e 2515 4abe a312 e2be ef4c 03be
00000260: 229d d8bd 3481 a33b 8ecd 78bc c6ed 6a3e
00000270: 4f27 743e 6873 67be d40a c6be 3d29 85be
00000280: 5430 55be 3b97 ac3c 7356 88bd 0125 213e
00000290: 3098 babc e7d6 a9be 5212 1c3d 559b 6dbe
000002a0: 036e 243d adf1 b1be 4643 543d a95b e63d
000002b0: 43a4 d63d d853 7ebe 3070 c8bc e64b e5bd
000002c0: ead4 80be 65a3 4abe c413 1fbe 548d dfbe
000002d0: 01c6 923e 4837 fbbd 732e d4bd 208a 803d
000002e0: 583f 4a3d 160d 8e3d dc1a 613e c902 74be
000002f0: 38c2 143d eaf5 96bc fb7e 84be fbd4 c8bd
00000300: ddc2 983d f11e 963d 8216 693e 8662 883e
00000310: e452 3cbe 201b efbd fb4e e6bd cd47 8cbe
00000320: a612 f6bd 0f2c c8be 6d28 803e 09ba d03e
00000330: fba6 8a3c b399 b2be e2e5 cebe 1806 50be
00000340: 94db 333e 4742 8e3c 21a2 1d3d 8017 b63e
00000350: a623 673e 594c 743c 52ea a9bd 94f2 573e
00000360: 5c06 b23d 4b9a 98be d111 82be 6631 79bd
00000370: d745 263e 93c9 823e ebbe 4ebe e72e d5be
00000380: e5fc 20be 384b 3f3d 0284 1a3d 89ca adbd
00000390: 4765 dfbc e8f8 883e 4baf bd3e b345 76be
000003a0: 57d5 833e 71b2 e8bb 4440 23be 306a 3b3e
000003b0: d299 90be da03 563e 1b66 eebc d3a2 5a3d
000003c0: 65f4 113e 31b8 853d a2dc 943d a93f 523e
000003d0: c20b c8be 25d4 b23e fab2 e93c 1905 76bc
000003e0: 5e7a 9d3d c9c5 533e 0287 06be 8750 4ebe
000003f0: 260b ac3e 53b2 5cbe 6cb5 463d 5a42 b5bd
0.0482 0.049203433 0.30294743 -0.15201104 -0.084064975 0.08402785 0.21298692 -0.11492452
-0.28228214 -0.097594485 0.31556404 0.19584064 0.34214127 -0.38207388 0.055189513 -0.34334013
0.048173223 0.40455353 0.024524126 0.21238607 -0.37182167 0.077774584 -0.21946664 0.32441655
0.11784851 -0.18017837 0.20781943 0.2555944 -0.39124903 0.41358733 0.07843446 0.10489627
0.3412583 0.3749959 0.08781347 0.12960537 0.20560619 0.24648392 -0.14969654 0.15124154
-0.22230598 -0.018821064 0.11839017 0.11630693 -0.13375361 -0.32645875 0.122201726 0.07222158
0.3571115 -0.3010933 0.057543293 -0.026446117 0.6158875 -0.41683343 0.04085205 0.20584679
-0.41138318 0.16071515 -0.14386395 -0.25795317 0.06674531 -0.0201207 0.3994637 -0.15083411
0.20528853 -0.38152394 -0.04696392 0.07979498 0.25097927 0.07581467 -0.35261154 -0.027125087
-0.33529803 0.10774673 -0.43304944 -0.09347026 0.054116495 -0.20435697 -0.23590973 0.018221473
0.106266774 -0.07738471 0.2291448 -0.27710456 -0.20241934 -0.25901026 -0.032675102 -0.09737939
0.36780292 -0.19997458 0.13405284 -0.011100449 0.4032703 0.05822961 -0.48214933 -0.10042922
-0.46694082 0.315126 -0.46927956 -0.24513057 -0.01694078 -0.02779989 0.44813633 0.11338397
0.15190157 -0.067179315 0.19087838 0.032544598 -0.18388544 0.4392249 -0.22212787 -0.29091567
0.3748886 -0.27850506 -0.036743082 0.0611229 0.010542334 -0.2953498 -0.41834298 -0.06310557
-0.09596733 0.0832676 0.1387313 -0.04164256 0.26277012 -0.19421308 -0.10203404 0.08301629
-0.05787502 -0.31296554 -0.12894455 0.4289177 0.021445338 -0.034770463 0.22345734 0.027544828
-0.23860717 -0.15790167 -0.20617007 0.062476274 -0.3568236 -0.023418864 0.18661706 0.35573477
0.10854819 0.0011863691 0.37479785 0.26442337 0.19436699 -0.19734628 -0.44154844 -0.12822317
-0.10576846 0.0049897674 -0.015185727 0.22942266 0.2384312 -0.22602618 -0.38680136 -0.26008025
-0.20819217 0.021068206 -0.06657114 0.15736772 -0.022777647 -0.3317177 0.03810341 -0.23203786
0.040143978 -0.34754696 0.05182197 0.112479515 0.10480549 -0.24836671 -0.024467558 -0.11196117
-0.2516244 -0.19788893 -0.15534884 -0.43662512 0.2866669 -0.122664034 -0.10360422 0.06276345
0.049376816 0.0693609 0.21982902 -0.23829187 0.036318034 -0.018427808 -0.25878128 -0.09806248
0.07459042 0.0733012 0.22762492 0.26637667 -0.18390995 -0.116750956 -0.11245533 -0.2739853
-0.12015276 -0.39096114 0.25030842 0.40766934 0.016925326 -0.34882888 -0.40409762 -0.20314825
0.17564231 0.017365588 0.038484696 0.35564804 0.22572193 0.014910781 -0.08296646 0.2108863
0.08692619 -0.29805216 -0.25404218 -0.060838126 0.1623758 0.25544414 -0.20190017 -0.41637346
-0.15721472 0.046702594 0.03772355 -0.08485896 -0.027269972 0.267524 0.370478 -0.24050026
0.25748703 -0.00710135 -0.15942484 0.18302226 -0.28242356 0.20899907 -0.029101422 0.053377938
0.14253385 0.06529272 0.07268645 0.20532097 -0.3907147 0.34927478 0.028527725 -0.015015864
0.07689355 0.20680918 -0.13137439 -0.20147906 0.33602256 -0.215524 0.04851286 -0.08850546

static_variable_selection.single_variable_grns.encoder_length.gate_norm.glu.fc.bias f4 [32]
00000000: c681 c33d 4cc7 85bd 6430 e0bb ebe2 b7bd
00000010: 0333 443d 6092 68bd 2501 a1bd fd63 9f3d
00000020: bd1f c63c a062 ba3d bdc1 443d ef4b e9bc
00000030: 6d79 0a3e 3627 fdbb 3e71 42be 1876 fa3d
00000040: 704b 0dbd fa95 943d 1c2d d8bd 9966 08bd
00000050: 66c2 2fbe b460 93bd 7ec8 df3d 6f91 093d
00000060: 3253 a8bc 1bfa d2bd 7ea7 2fbb 3765 073c
00000070: b4ec a63c e0b2 88bc 8331 a93d 2f01 d2bc
0.09546237 -0.065321535 -0.006841706 -0.08978828 0.04790021 -0.05678022 -0.078615464 0.07782743
0.024185056 0.091008425 0.048036326 -0.02847859 0.13522883 -0.0077256216 -0.18988511 0.12229556
-0.03449577 0.07255168 -0.10555479 -0.03330097 -0.17164001 -0.07196179 0.10926913 0.033585962
-0.020547483 -0.1030161 -0.0026802714 0.008263878 0.02037654 -0.016686857 0.08261397 -0.02563533

static_variable_selection.single_variable_grns.encoder_length.gate_norm.add_norm.norm.weight f4 [16]
00000000: 0ebb 793f 3372 5a3f 85ec a03f 75c2 893f
00000010: d440 813f 5b72 4c3f 310f 903f 46d2 543f
00000020: cd4a 783f 9c60 463f ec5f 743f 6e5b 7e3f
00000030: c05d 833f b196 653f 3907 6a3f 2fef 893f
0.9755105 0.85330504 1.257218 1.0762469 1.0097909 0.7986199 1.1254636 0.8313335
0.96989137 0.77491164 0.95458865 0.9935826 1.0262985 0.8968306 0.9141727 1.0776118

static_variable_selection.single_variable_grns.encoder_length.gate_norm.add_norm.norm.bias f4 [16]
00000000: 1270 4f3d f2da 32bd 1cc4 a83d e171 bcbc
00000010: 48cd b83d a7ad a5bd bd11 0bbe e088 1c3e
00000020: e324 9d3c 5b88 433e e417 c43d f282 98bd
00000030: a2a2 e93d ae9f 20bd fbe6 38be 2bc4 193e
0.050643988 -0.043665834 0.0824053 -0.02300352 0.09023529 -0.08089762 -0.13580985 0.15286589
0.019182628 0.19094984 0.09574869 -0.07446851 0.11407973 -0.039214782 -0.18056862 0.15016238

static_variable_selection.single_variable_grns.Voltage-Battery_center.resample_norm.mask f4 [16]
00000000: 20c5 acbd 6ec0 8e3d c164 9bbd 5bdf a23e
00000010: 0756 9e3d 4df2 b2bc e007 98bd a579 863c
00000020: 7a54 213c a122 db3d 82a5 6cbe 724a 243e
00000030: 93bc f13c 85ef 19be da0f 4cbc 5036 98bd
-0.08436036 0.06970297 -0.07587577 0.31811032 0.07731252 -0.021844054 -0.07423377 0.016415427
0.009846801 0.10699964 -0.23110011 0.16044024 0.029508865 -0.15032776 -0.012454951 -0.07432234

static_variable_selection.single_variable_grns.Voltage-Battery_center.resample_norm.norm.weight f4 [16]
00000000: 39a0 783f 27f3 873f 0393 763f 005d a73f
00000010: dec2 8c3f 9e53 7a3f ea56 6e3f e76a 823f
00000020: eb6e 833f 64e1 8d3f 40aa 453f a755 933f
00000030: ba43 8b3f 138a 5c3f 2a27 813f ff03 773f
0.9711948 1.0621079 0.9631807 1.3075256 1.0996969 0.9778384 0.9310137 1.0188874
1.0268224 1.1084409 0.77212906 1.1510514 1.0880044 0.86148185 1.0090077 0.9649047

static_variable_selection.single_variable_grns.Voltage-Battery_center.resample_norm.norm.bias f4 [16]
00000000: ad4f e3bd 25d2 933d 92bb 8abd b9e7 103d
00000010: 12e9 8dbc e87d e43c e78b dabd 4a55 80bc
00000020: 2ecd 7ebc 79cc 3a3d 308d 0d3e 28d5 c23b
00000030: ab1e e3bc 54aa cabd e2e2 d93c ed35 543e
-0.11099181 0.07217816 -0.067740574 0.035377238 -0.01732305 0.027892068 -0.106712155 -0.015665669
-0.015551848 0.045605157 0.1382339 0.0059458204 -0.027724585 -0.09895769 0.026597444 0.20723696

static_variable_selection.single_variable_grns.Voltage-Battery_center.fc1.weight f4 [8, 8]
00000000: 0fc6 cfbe afc2 563f bc90 9dbd 19a0 a8bd
00000010: d1ba 903d 8f59 b8be aa50 223f 0ca4 963d
00000020: 4fed dcbf 643d f83e 3d77 8a3e 00e7 a83d
00000030: ab27 13bf 866e 6d3d 2041 353d e3ff d43e
00000040: d64d ec3d a92b cebd b7e6 273f 2690 c1be
00000050: 7a41 78bd 47b2 48be 9505 b4be 9ab8 6a3e
00000060: 11d0 bc3e 2631 14bd d40a aebe 5d24 f93e
00000070: cf0b bfbe d98e 093f 5dae a03e e674 9f3d
00000080: a7ae 773f de9e 8f3f 59a7 e8be 2652 263f
00000090: e4a5 7a3f 10c8 cc3d facb 1f3f 04aa 463d
000000a0: 03e5 4e3e 6909 823f 7e9a c6be ce3c f33e
000000b0: a465 243f 9584 3c3f 4455 963e ef57 81bc
000000c0: 66c1 ca3e 826f ceba 4d2e 61bf dd04 863d
000000d0: f2a0 073d 86f4 2abe 0132 8a3f 31bc 073f
000000e0: 0099 043f fd9f a53e 671d c5be eac1 e2be
000000f0: 4aec e3be 5d78 853f 8bc6 2c3e 4b1c 4c3e
-0.40580794 0.83890814 -0.076936215 -0.08233661 0.070668824 -0.36005828 0.63404334 0.07355508
-1.7259921 0.48484337 0.27044097 0.08247185 -0.57482404 0.05796673 0.04425156 0.41601476
0.115382835 -0.10066921 0.6558642 -0.3780529 -0.06060932 -0.19599257 -0.3516051 0.22921982
0.36877492 -0.036179684 -0.33992636 0.48660555 -0.37313697 0.53733593 0.3138303 0.077859685
0.96750873 1.1220357 -0.45440176 0.649691 0.9790938 0.099990964 0.6242062 0.048501983
0.20204549 1.0159122 -0.38789743 0.47507328 0.6421759 0.73639804 0.29361928 -0.015789
0.39600676 -0.0015749785 -0.87961274 0.06543896 0.033112474 -0.16694841 1.079651 0.5302153
0.5179596 0.32348624 -0.38498995 -0.4428857 -0.44516212 1.0427357 0.16872613 0.19932668

static_variable_selection.single_variable_grns.Voltage-Battery_center.fc1.bias f4 [8]
00000000: 496d 61bd e33f 9abd 1bdf ed3c 6fb7 bebd
00000010: f738 4abe 8cb4 533d 3480 4bbd c1f0 02bc
-0.055035863 -0.07531717 0.029037049 -0.09312331 -0.19748293 0.051685855 -0.04968281 -0.0079919705

static_variable_selection.single_variable_grns.Voltage-Battery_center.fc2.weight f4 [8, 8]
00000000: 16d0 c3be 9f17 d73e 3f40 88be 38bb fabd
00000010: bec2 b9be 17cb dfbc 04f2 a3be deab 533e
00000020: e884 863e 6318 62be 6017 abbe 6231 013e
00000030: 6be7 b9be 3169 57be 7d4a b23d 2cea 863d
00000040: 8122 af3d 6084 9abe cc58 95be 0955 10be
00000050: 4684 803e f9c8 ccbd c020 99bf 5f53 45bf
00000060: 7906 46be a6d3 163e 906b f93e 2a3a 3ebe
00000070: 5f5d a23e bf89 9b3e e248 563f 9de7 2b3f
00000080: 6cdc 4a3e 421e 2ebf eaa5 c03e 2657 f4bd
00000090: 108f fcbc feac c6be 6e92 f5be 80a0 20bf
000000a0: a666 0abd 02ad e4be 5e70 633f fa08 f13e
000000b0: 8250 11bf 683a 00bf 7000 393d 810a 173e
000000c0: 35c5 303e 7a85 6abe ec61 d8be 8d52 59be
000000d0: d729 12bf db5c 5e3f 9861 b6be c598 1bbf
000000e0: 21cc 59be a389 efbe 2027 7bbe 8425 e2be
000000f0: e9b1 aabd 1518 943e 7fbf 8c3d b52e 493e
-0.38244694 0.4201021 -0.26611516 -0.122427404 -0.3628139 -0.02731852 -0.3202058 0.20671031
0.26273274 -0.22079615 -0.3341627 0.12616494 -0.3630937 -0.21036221 0.08705614 0.065876335
0.08551503 -0.3017912 -0.2916931 -0.14094938 0.25100917 -0.0999927 -1.196312 -0.7708034
-0.19338407 0.14729175 0.48714876 -0.18576875 0.31711861 0.3037853 0.8370496 0.6715029
0.19810647 -0.6801492 0.37626582 -0.11930685 -0.030829936 -0.38803858 -0.4796328 -0.62744904
-0.0337893 -0.44663244 0.88843334 0.4707716 -0.5676347 -0.5008912 0.045166433 0.147501
0.17262729 -0.2290248 -0.42262208 -0.21222897 -0.5709509 0.86860436 -0.35621333 -0.6077998
-0.21269275 -0.46784696 -0.24526644 -0.44169247 -0.08334715 0.28924623 0.068724625 0.19646724

static_variable_selection.single_variable_grns.Voltage-Battery_center.fc2.bias f4 [8]
00000000: 76d0 293e a498 e5ba 906c 00bd b4c4 88bd
00000010: 80ac 263d 961c 0f3e b5c9 f33d 3270 a63d
0.16583428 -0.0017516804 -0.031353533 -0.06678143 0.040691853 0.13975748 0.11903707 0.08126868

static_variable_selection.single_variable_grns.Voltage-Battery_center.gate_norm.glu.fc.weight f4 [32, 8]
00000000: 88e4 a63d 59d5 9abe 190c 8abe 0786 a0be
00000010: df4c 9e3d 64d9 76be 5b0f 323b a499 dab8
00000020: 0ea1 4bbe 7efb 10be 9b9e 44be 15c8 8fbe
00000030: 03e0 603d 827a a4be 4b65 92be 9bdb 9a3d
00000040: 08fa d83c 79e6 a6be 1ed8 5dbd e123 213e
00000050: bb93 65be 0149 82be a8f4 69be 9bbe 083e
00000060: 3450 783d 9f8b a6bd 633d 103e c876 85be
00000070: 8226 783e d22e 48be cf49 efbc f873 c2bd
00000080: 9a6b 83bd 1375 d13e ff9a 41be 9ec3 4abe
00000090: abcc acbd 4690 8f3e 3d8f 953e 7f2c b43d
000000a0: bee9 0e3c 3f64 5cbe 72d4 993e b1aa 7f3d
000000b0: 8da4 1b3e 1745 3fbe f0ba 2bbe 30c0 1abe
000000c0: b795 d53e 03c9 7a3d 4158 aabe 4b4a 1abe
000000d0: 23a5 93be 819a bf3d c990 953e 43e1 06be
000000e0: e452 bf39 fdd4 3bbe 65f0 493d baaf 5abe
000000f0: ef21 0c3e ca99 a73e 1959 c23e 97e7 093d
00000100: a31b a03e 6396 c83e 755d d63d 93fb 4d3e
00000110: f7e7 11bd fbe9 883e a263 613e fa58 68bd
00000120: 1087 f0bd 60d0 9fbe 2e4e 373e 11ec 3abe
00000130: 11df 413e a8ac 903d 0464 03bd f793 8c3e
00000140: 637e 47be 5031 793e 1d24 5e3e 4ace a5be
00000150: 76b7 c73e 090c 773e 1b7d 693e 8657 e1bd
00000160: 81ef a63d f3df 94be ecbc f6bd e415 bb3e
00000170: df5b 783d e4a8 a93d 14d2 9abe ebf1 b33e
00000180: 2198 28be f6b7 873e 8fdd c03e 5b39 f33c
00000190: 9da7 eb3e 46b6 2f3e 33a1 413e 5162 92bd
000001a0: eb57 a73e 8539 0ebd 0544 633e f627 14bc
000001b0: 5021 ad3e d0af 903e 75a1 55be 1e64 a93e
000001c0: 5a32 56be 01b4 9bbe 23be a5be 6ae1 133e
000001d0: d5f6 93be fb3a 36bd ec1f cfbe 5ed8 343e
000001e0: ae6a cbbe cfe7 15bd 64ac 9fbc 3607 48bd
000001f0: 5511 98be 0d65 15be 4720 6fbe 030c 26be
00000200: 091f 5bbc 8e60 41be a4ba 4a3e 3148 89be
00000210: 76a5 70bd 2936 5d3e c33c 86be 4fe7 4f3e
00000220: 6402 babd e70c 33be 12f1 5bbe c6bc 87be
00000230: f298 06be 9631 79be 8836 563e 7613 11be
00000240: 00e5 df3e ca01 a43e 620b 873e f0c1 84bd
00000250: 9f01 523e 2020 fb3e 2fe7 f03e fdc0 c5be
00000260: 3ff7 ed3d 4667 89be 4b59 d2bd 383c aebe
00000270: 6991 8a3e 2c09 2c3e c609 013e 0f39 cfbe
00000280: 311a 35be f34c 33bc a99a acbe e099 4ebe
00000290: 3dbf c03d fd54 32be feb6 c8bd f0e6 c93e
000002a0: 5370 783e 59ff a3be 8bd8 3e3d efc8 d93d
000002b0: b3f4 d9be 203a 013e 46fd 233e 1ebc 093d
000002c0: 129e 843e b698 43be 712b 903e bf30 bebd
000002d0: ebc5 3dbe 232b 783e 59b8 88be aa70 a0bd
000002e0: 0a8d a33e 53ea dcbe 93be a6be 6666 1b3d
000002f0: 40ff 8d3e ca9e 083c 7ba4 773e 4bb4 5f3e
00000300: 7cd9 383e 1613 91be 6d28 a63e 831b 8e3d
00000310: 9d62 943d b3d1 b93e 24e6 55be 780e 0cbd
00000320: 6593 09be 40fc 4cba 1c88 0a3e 167c 803d
00000330: 640c d93d 4c87 8fbe 5e5d 17be 2a3e 43bd
00000340: fd01 1fbd 39cb a1be da41 b33e 72f3 0fbb
00000350: 927f 8ebe 73b6 563e 6b19 533e 362c 23be
00000360: 31cd a83e f749 a1be 6321 3e3d eb4a e23e
00000370: 224e df3d ef8a 513e 669d 73be a84c 443e
00000380: ca41 d03d 08af 2fbd 4e1c bfbd 42d4 3e3e
00000390: c85a 3abe 652c d0be 3604 06bf dfe7 a8bd
000003a0: 24dc 3fbe 3f31 d13e 6725 0b3d b493 d3be
000003b0: d608 7dbe fe90 4c3e 3e17 30be 2e54 eabd
000003c0: 0acc 7d3c 354e 36be cbb8 a6bd 3d91 5c3e
000003d0: 0ba7 e43c ddad 173e abcf b53d 7e73 383e
000003e0: 52a8 05be 5d57 0e3e 117a 9fbe e4a3 0c3a
000003f0: 7a22 22be 1975 2abe a774 5ebe 0f0b 2f3e
0.081490576 -0.30240896 -0.26962355 -0.31352255 0.07729506 -0.24106365 0.0027169797 -0.00010423668
-0.19885656 -0.14158437 -0.19201128 -0.28082338 0.054901134 -0.32124716 -0.28592905 0.07561418
0.026486412 -0.32597712 -0.054161184 0.15736343 -0.22419636 -0.25446323 -0.22847235 0.1335396
0.060623363 -0.08132099 0.14085917 -0.26067185 0.2423344 -0.1954911 -0.02921 -0.094947755
-0.06417008 0.40909633 -0.18906783 -0.19801185 -0.08437475 0.2803976 0.29210845 0.087975495
0.008722721 -0.21522616 0.30044895 0.062418643 0.1519949 -0.186787 -0.1677053 -0.15112376
0.41715786 0.061226856 -0.33270457 -0.15067403 -0.28836927 0.09355641 0.29212025 -0.13171868
0.00036492117 -0.18342967 0.049301524 -0.21356097 0.1368482 0.3273452 0.379586 0.033668127
0.31271085 0.39177236 0.10467044 0.20115499 -0.03562161 0.26741013 0.22010663 -0.05672548
-0.11744511 -0.31213665 0.17900917 -0.18254115 0.1893275 0.070641816 -0.032077804 0.27456638
-0.19481806 0.24335217 0.21693464 -0.3238395 0.39007157 0.24125685 0.2280163 -0.11003022
0.081511505 -0.2907711 -0.12047753 0.3654014 0.06063449 0.082841665 -0.30238402 0.35145506
-0.16464283 0.2650754 0.37669036 0.029690435 0.46026316 0.17159376 0.18909149 -0.071476586
0.32684264 -0.034722824 0.22193916 -0.009042731 0.33814478 0.28259134 -0.20862372 0.33084196
-0.20917645 -0.3041077 -0.32371625 0.14441457 -0.28899255 -0.044489842 -0.40454042 0.17660663
-0.39729828 -0.036598023 -0.019491382 -0.048835002 -0.29700723 -0.14589329 -0.23352157 -0.1621552
-0.013374099 -0.18884489 0.1979776 -0.2681289 -0.058751546 0.21602692 -0.26218233 0.20303081
-0.09082487 -0.1748539 -0.2147868 -0.2651121 -0.13144282 -0.24335322 0.2091924 -0.1416758
0.437294 0.32032615 0.26375872 -0.06482303 0.20508431 0.49047947 0.4705138 -0.386238
0.11619424 -0.26836604 -0.102709375 -0.34030318 0.27064064 0.16800374 0.12601385 -0.4047322
-0.17685772 -0.010943639 -0.33711746 -0.20175886 0.09411476 -0.17415233 -0.09800528 0.39434004
0.24261598 -0.32030752 0.04659323 0.10634028 -0.42569503 0.12619829 0.16014585 0.03362667
0.25901848 -0.19101223 0.28158143 -0.09286641 -0.18532531 0.24235205 -0.26703146 -0.07833989
0.31943542 -0.43147525 -0.32567272 0.03793945 0.27733803 0.0083386395 0.24183838 0.2184612
0.18051714 -0.28334874 0.32452717 0.06938841 0.072453715 0.362928 -0.20888573 -0.034193486
-0.13435133 -0.00078195706 0.13528484 0.062736675 0.105980664 -0.2803291 -0.1478171 -0.047666706
-0.038820256 -0.3160036 0.35011178 -0.0021965173 -0.27831703 0.20968036 0.20615165 -0.15934834
0.3296905 -0.31501743 0.04641856 0.44197783 0.109035745 0.20463155 -0.23790511 0.19169867
0.10168798 -0.042891532 -0.093315706 0.18635657 -0.18198693 -0.4065887 -0.52350175 -0.08247351
-0.1873632 0.40857884 0.033971217 -0.41323626 -0.24710402 0.19977185 -0.17196366 -0.11441837
0.015490541 -0.17803271 -0.08140715 0.21539779 0.027911684 0.14812417 0.088775 0.18012807
-0.1305249 0.13900514 -0.31147817 0.0005364998 -0.15833464 -0.16646232 -0.21724187 0.17094062

static_variable_selection.single_variable_grns.Voltage-Battery_center.gate_norm.glu.fc.bias f4 [32]
00000000: 79f3 bcbd 06af 7f3d 3681 88bd 3ee6 af3c
00000010: 5a62 19bd e735 233d 9967 c8bd 5aac e1bc
00000020: 3de5 40bc a863 4f3d 9e9f 093e 3125 743c
00000030: 5400 e9bc 9e06 d2bd 6afe 183c 29ff 413e
00000040: c3d9 8ebd cd80 d2bd 8074 1bbe a9ed 64be
00000050: 9e7f 3bbe 517d 04be ac1f b73d cdfd debd
00000060: a8a1 1dbe 7de3 35bd edbf bdbc d110 25bd
00000070: 2973 94bb 2465 71bc 6469 46bd 184d 1f3d
-0.09226126 0.062422775 -0.0666527 0.021472093 -0.03744731 0.039846327 -0.09785385 -0.027548004
-0.011773405 0.05063215 0.13439795 0.014901445 -0.02844254 -0.102551684 0.009338001 0.18944992
-0.069751285 -0.10278473 -0.1518116 -0.22356285 -0.18310401 -0.1293843 0.08941588 -0.108882524
-0.15393698 -0.044406403 -0.023162806 -0.04029924 -0.0045303297 -0.014733586 -0.048440352 0.03889188

static_variable_selection.single_variable_grns.Voltage-Battery_center.gate_norm.add_norm.norm.weight f4 [16]
00000000: fce5 6b3f 55b5 803f 944d 663f 2d39 9f3f
00000010: 3fc7 803f 914c 813f cdc0 7e3f 14d5 823f
00000020: 4fa8 7c3f 7959 8e3f 733e 413f a00c 933f
00000030: 7a3c 853f 48ce 383f 23b7 803f 4769 7c3f
0.92147803 1.0055338 0.89962125 1.2439324 1.0060805 1.0101491 0.9951294 1.0221276
0.9869432 1.1121055 0.75485915 1.1488228 1.0409081 0.7218976 1.0055889 0.9859814

static_variable_selection.single_variable_grns.Voltage-Battery_center.gate_norm.add_norm.norm.bias f4 [16]
00000000: 50ed 06be d7d0 863d 7d80 a4bd ac30 3c3d
00000010: 383d 373b 3670 543d dfb1 90bd 8186 b2bc
00000020: 6b4f 9ebc 8bdd 8c3c c4f4 e63d e34c 7bbc
00000030: a8e6 65bd 267e fdbd 1943 2c3d 3a70 6f3e
-0.13176465 0.06582802 -0.0803232 0.045944855 0.0027960073 0.051864825 -0.07065176 -0.021792652
-0.019324979 0.017195484 0.11277154 -0.015338155 -0.056128174 -0.123775765 0.042056177 0.23382655

static_variable_selection.single_variable_grns.Voltage-Battery_scale.resample_norm.mask f4 [16]
00000000: 141a 823e 1a8f 17bd c2eb 3f3d d245 ccbd
00000010: 10a8 eebb de54 dbb9 20ff eabc 8cd3 58be
00000020: 9ed1 3f3d 1f7e f7bc a6c6 f4bd 685f 8ebd
00000030: 01a9 5abd a974 493e f394 d03d 1509 19be
0.2541052 -0.037001707 0.046855696 -0.09974255 -0.007283218 -0.00041834166 -0.028686106 -0.21174449
0.046830766 -0.030211506 -0.11951952 -0.06951791 -0.05338383 0.19673409 0.1018466 -0.14944871

static_variable_selection.single_variable_grns.Voltage-Battery_scale.resample_norm.norm.weight f4 [16]
00000000: 6550 a23f ec82 673f 923f 893f d83a 6d3f
00000010: 3613 773f 7a5e 823f 4350 713f 8196 3e3f
00000020: 50b3 633f 5308 703f 18b3 5b3f 1629 713f
00000030: 2dfa 693f c2a3 973f b0c4 8c3f 9016 603f
1.2680784 0.90434146 1.0722525 0.92667913 0.9651369 1.0185082 0.94263095 0.744484
0.88945484 0.937627 0.8582015 0.9420332 0.9139736 1.184685 1.0997524 0.8753443

static_variable_selection.single_variable_grns.Voltage-Battery_scale.resample_norm.norm.bias f4 [16]
00000000: dba4 233d 12cf 8bbd eb2d d03d 9b72 133d
00000010: 0311 073d 57c0 be3d e4fc 59bd bd7f 77be
00000020: 471d 3fbe 7618 9a3c 9347 223e c2e9 9b3d
00000030: 300d 803d 3073 41be 2cca c4bd bac8 813e
0.03995214 -0.06826605 0.10165008 0.03599797 0.032975208 0.0931403 -0.05321969 -0.24169822
-0.18663512 0.018810492 0.15847616 0.07612945 0.06252515 -0.18891597 -0.09608874 0.25348455

static_variable_selection.single_variable_grns.Voltage-Battery_scale.fc1.weight f4 [8, 8]
00000000: 2cd3 c7be c731 0c3f ac40 5d3d db0f b8be
00000010: 518c 98be 1fe4 83be efd9 bc3c 765a 4e3f
00000020: 984e 8bbf 864d 4dbe e7d7 3d3f 85b8 acbf
00000030: 0310 0d3f f5eb 893e 3075 c2bd ff88 443e
00000040: 7d80 82bf dd43 a3bc f3bf 8cbe 3232 25bd
00000050: 2d32 fcbe b978 0bbf da8b 68be b531 1a3d
00000060: ce4c ab3e a764 57bf 7f8b f33d 2490 533f
00000070: 004a 9abc 1771 adbe 94ef b33e 1b7d 983d
00000080: 4848 3fbe d9d2 863e c681 f23e 8ec0 5dbf
00000090: 96c7 e23e b26d 1a3e 5127 433f c88a cebb
000000a0: 6094 ba3e a6e9 e1be ea0c 20bf ce12 49bf
000000b0: 7572 c23e b1f4 3abf 9a1c c43e b218 d4be
000000c0: 0c43 28bf cad8 913e 1068 793d fe97 e8be
000000d0: f2ed 39bf b3fb b6bd d61f 8c3e 2f82 51bf
000000e0: 65f8 f03e d991 283f 3f62 7b3d 8aa5 cebd
000000f0: fdfb ea3e 65d0 81bf 626d c63e db3f 7c3f
-0.390283 0.54763454 0.054016754 -0.35949597 -0.29794553 -0.2575998 0.023053138 0.8060678
-1.088336 -0.20049104 0.74157566 -1.3493811 0.55102557 0.26937833 -0.09495008 0.19192885
-1.0195462 -0.01992982 -0.27490196 -0.040331073 -0.4925703 -0.54481083 -0.22709599 0.03764506
0.33457035 -0.8413796 0.11891841 0.82641816 -0.018834114 -0.33875343 0.3514372 0.07445737
-0.18679917 0.2633274 0.47364634 -0.8662194 0.44292897 0.15080908 0.7623187 -0.006303165
0.36441326 -0.44123572 -0.62519705 -0.7854432 0.3797795 -0.7302962 0.3830307 -0.4142509
-0.65727305 0.2848571 0.060890257 -0.4542846 -0.726287 -0.089347266 0.2736804 -0.8183927
0.4706451 0.65847546 0.06137299 -0.10090168 0.45895377 -1.0141722 0.38755327 0.98534936

static_variable_selection.single_variable_grns.Voltage-Battery_scale.fc1.bias f4 [8]
00000000: da8a 52bd cc45 793b 0e83 fbbc cdfe e8bb
00000010: 601a 713c 05df 133d 42e8 39bd 82b9 c6b9
-0.05140195 0.0038035987 -0.03070214 -0.0071104527 0.014715761 0.03610136 -0.045387514 -0.00037903717

static_variable_selection.single_variable_grns.Voltage-Battery_scale.fc2.weight f4 [8, 8]
00000000: 3b54 9d3b 9f54 05bf 8431 90be 02cf efbd
00000010: 6712 02bf 3758 023f 5e6f 3ebf 3bd8 d13e
00000020: 6449 8dbd b592 673f 53d0 ea3e b7eb 343e
00000030: 5e0f a6be d2b6 c2be 6c5b 363e dd3c cebe
00000040: 0dac 033f 8b94 6f3e a518 fb3e 0517 163d
00000050: 2da6 e0be c713 c9be 3d33 f23e f312 193f
00000060: f588 713f f1e6 b73e 47f7 823c 3dec b13e
00000070: 651d 18bf fb4a bebd b5d2 05bf 1b7c 7f3e
00000080: e806 ffbe ddfc 083c 33a2 143f b78d a3be
00000090: bc1e ecbd 2db0 a33d f704 e43e 766b a83e
000000a0: 8260 9a3e b32b 04be 3c1e 41be 3e8d 323f
000000b0: 7f8a e93d a4e4 93bf 7332 103e 32f3 8dbf
000000c0: c7dc 983e 4210 a13f 1f9f 93be 5903 58be
000000d0: 3238 41bf fbb4 843e d50b 8dbe a3a4 7abf
000000e0: d5d8 cdbd 755f d23d b87e d63c 5340 e43e
000000f0: 8752 3fbf 3651 ac3e 575e 95bf 1ae6 1d3e
0.004801301 -0.52082247 -0.28162777 -0.117094055 -0.5080933 0.50915855 -0.7438868 0.40985283
-0.06898764 0.9045823 0.45862064 0.17668043 -0.324336 -0.38030106 0.17808312 -0.4028081
0.51434404 0.23396508 0.4904224 0.036643047 -0.43876782 -0.392729 0.47304717 0.5979454
0.94349605 0.35918382 0.015987052 0.34750548 -0.5941985 -0.09291645 -0.5227464 0.24949686
-0.49809957 0.008361069 0.58059996 -0.31944057 -0.115292996 0.07992587 0.44535038 0.32894486
0.30151755 -0.12907295 -0.1885919 0.6974677 0.11403369 -1.155415 0.14081745 -1.1089842
0.2985594 1.2583086 -0.28832337 -0.21095027 -0.7547637 0.25919327 -0.2754809 -0.97907466
-0.10051123 0.10272113 0.026183471 0.44580325 -0.747353 0.3365571 -1.1669415 0.15419808

static_variable_selection.single_variable_grns.Voltage-Battery_scale.fc2.bias f4 [8]
00000000: 1051 053d bbdc 613d 98ac 57bd e2a3 21bd
00000010: e350 a23c 4229 a0bc 219a 863c 1e3f 573d
0.03254801 0.055142146 -0.052654833 -0.03946293 0.01981396 -0.019550923 0.016430916 0.052550428
